{"format": "layers-model", "generatedBy": "keras v2.11.0", "convertedBy": "TensorFlow.js Converter v3.21.0", "modelTopology": {"keras_version": "2.11.0", "backend": "tensorflow", "model_config": {"class_name": "Sequential", "config": {"name": "sequential", "layers": [{"class_name": "InputLayer", "config": {"batch_input_shape": [null, 224, 224, 3], "dtype": "float32", "sparse": false, "ragged": false, "name": "efficientnetv2-b0_input"}}, {"class_name": "Functional", "config": {"name": "efficientnetv2-b0", "layers": [{"class_name": "InputLayer", "config": {"batch_input_shape": [null, 224, 224, 3], "dtype": "float32", "sparse": false, "ragged": false, "name": "input_1"}, "name": "input_1", "inbound_nodes": []}, {"class_name": "Conv2D", "config": {"name": "stem_conv", "trainable": false, "dtype": "float32", "filters": 32, "kernel_size": [3, 3], "strides": [2, 2], "padding": "same", "data_format": "channels_last", "dilation_rate": [1, 1], "groups": 1, "activation": "linear", "use_bias": false, "kernel_initializer": {"class_name": "VarianceScaling", "config": {"scale": 2.0, "mode": "fan_out", "distribution": "truncated_normal", "seed": null}}, "bias_initializer": {"class_name": "Zeros", "config": {}}, "kernel_regularizer": null, "bias_regularizer": null, "activity_regularizer": null, "kernel_constraint": null, "bias_constraint": null}, "name": "stem_conv", "inbound_nodes": [[["input_1", 0, 0, {}]]]}, {"class_name": "BatchNormalization", "config": {"name": "stem_bn", "trainable": false, "dtype": "float32", "axis": [3], "momentum": 0.9, "epsilon": 0.001, "center": true, "scale": true, "beta_initializer": {"class_name": "Zeros", "config": {}}, "gamma_initializer": {"class_name": "Ones", "config": {}}, "moving_mean_initializer": {"class_name": "Zeros", "config": {}}, "moving_variance_initializer": {"class_name": "Ones", "config": {}}, "beta_regularizer": null, "gamma_regularizer": null, "beta_constraint": null, "gamma_constraint": null}, "name": "stem_bn", "inbound_nodes": [[["stem_conv", 0, 0, {}]]]}, {"class_name": "Activation", "config": {"name": "stem_activation", "trainable": false, "dtype": "float32", "activation": "swish"}, "name": "stem_activation", "inbound_nodes": [[["stem_bn", 0, 0, {}]]]}, {"class_name": "Conv2D", "config": {"name": "block1-01_project_conv", "trainable": false, "dtype": "float32", "filters": 16, "kernel_size": [3, 3], "strides": [1, 1], "padding": "same", "data_format": "channels_last", "dilation_rate": [1, 1], "groups": 1, "activation": "linear", "use_bias": false, "kernel_initializer": {"class_name": "VarianceScaling", "config": {"scale": 2.0, "mode": "fan_out", "distribution": "truncated_normal", "seed": null}}, "bias_initializer": {"class_name": "Zeros", "config": {}}, "kernel_regularizer": null, "bias_regularizer": null, "activity_regularizer": null, "kernel_constraint": null, "bias_constraint": null}, "name": "block1-01_project_conv", "inbound_nodes": [[["stem_activation", 0, 0, {}]]]}, {"class_name": "BatchNormalization", "config": {"name": "block1-01_project_bn", "trainable": false, "dtype": "float32", "axis": [3], "momentum": 0.9, "epsilon": 0.001, "center": true, "scale": true, "beta_initializer": {"class_name": "Zeros", "config": {}}, "gamma_initializer": {"class_name": "Ones", "config": {}}, "moving_mean_initializer": {"class_name": "Zeros", "config": {}}, "moving_variance_initializer": {"class_name": "Ones", "config": {}}, "beta_regularizer": null, "gamma_regularizer": null, "beta_constraint": null, "gamma_constraint": null}, "name": "block1-01_project_bn", "inbound_nodes": [[["block1-01_project_conv", 0, 0, {}]]]}, {"class_name": "Activation", "config": {"name": "block1-01_project_activation", "trainable": false, "dtype": "float32", "activation": "swish"}, "name": "block1-01_project_activation", "inbound_nodes": [[["block1-01_project_bn", 0, 0, {}]]]}, {"class_name": "Conv2D", "config": {"name": "block2-01_expand_conv", "trainable": false, "dtype": "float32", "filters": 64, "kernel_size": [3, 3], "strides": [2, 2], "padding": "same", "data_format": "channels_last", "dilation_rate": [1, 1], "groups": 1, "activation": "linear", "use_bias": false, "kernel_initializer": {"class_name": "VarianceScaling", "config": {"scale": 2.0, "mode": "fan_out", "distribution": "truncated_normal", "seed": null}}, "bias_initializer": {"class_name": "Zeros", "config": {}}, "kernel_regularizer": null, "bias_regularizer": null, "activity_regularizer": null, "kernel_constraint": null, "bias_constraint": null}, "name": "block2-01_expand_conv", "inbound_nodes": [[["block1-01_project_activation", 0, 0, {}]]]}, {"class_name": "BatchNormalization", "config": {"name": "block2-01_expand_bn", "trainable": false, "dtype": "float32", "axis": [3], "momentum": 0.9, "epsilon": 0.001, "center": true, "scale": true, "beta_initializer": {"class_name": "Zeros", "config": {}}, "gamma_initializer": {"class_name": "Ones", "config": {}}, "moving_mean_initializer": {"class_name": "Zeros", "config": {}}, "moving_variance_initializer": {"class_name": "Ones", "config": {}}, "beta_regularizer": null, "gamma_regularizer": null, "beta_constraint": null, "gamma_constraint": null}, "name": "block2-01_expand_bn", "inbound_nodes": [[["block2-01_expand_conv", 0, 0, {}]]]}, {"class_name": "Activation", "config": {"name": "block2-01_expand_activation", "trainable": false, "dtype": "float32", "activation": "swish"}, "name": "block2-01_expand_activation", "inbound_nodes": [[["block2-01_expand_bn", 0, 0, {}]]]}, {"class_name": "Conv2D", "config": {"name": "block2-01_project_conv", "trainable": false, "dtype": "float32", "filters": 32, "kernel_size": [1, 1], "strides": [1, 1], "padding": "same", "data_format": "channels_last", "dilation_rate": [1, 1], "groups": 1, "activation": "linear", "use_bias": false, "kernel_initializer": {"class_name": "VarianceScaling", "config": {"scale": 2.0, "mode": "fan_out", "distribution": "truncated_normal", "seed": null}}, "bias_initializer": {"class_name": "Zeros", "config": {}}, "kernel_regularizer": null, "bias_regularizer": null, "activity_regularizer": null, "kernel_constraint": null, "bias_constraint": null}, "name": "block2-01_project_conv", "inbound_nodes": [[["block2-01_expand_activation", 0, 0, {}]]]}, {"class_name": "BatchNormalization", "config": {"name": "block2-01_project_bn", "trainable": false, "dtype": "float32", "axis": [3], "momentum": 0.9, "epsilon": 0.001, "center": true, "scale": true, "beta_initializer": {"class_name": "Zeros", "config": {}}, "gamma_initializer": {"class_name": "Ones", "config": {}}, "moving_mean_initializer": {"class_name": "Zeros", "config": {}}, "moving_variance_initializer": {"class_name": "Ones", "config": {}}, "beta_regularizer": null, "gamma_regularizer": null, "beta_constraint": null, "gamma_constraint": null}, "name": "block2-01_project_bn", "inbound_nodes": [[["block2-01_project_conv", 0, 0, {}]]]}, {"class_name": "Conv2D", "config": {"name": "block2-02_expand_conv", "trainable": false, "dtype": "float32", "filters": 128, "kernel_size": [3, 3], "strides": [1, 1], "padding": "same", "data_format": "channels_last", "dilation_rate": [1, 1], "groups": 1, "activation": "linear", "use_bias": false, "kernel_initializer": {"class_name": "VarianceScaling", "config": {"scale": 2.0, "mode": "fan_out", "distribution": "truncated_normal", "seed": null}}, "bias_initializer": {"class_name": "Zeros", "config": {}}, "kernel_regularizer": null, "bias_regularizer": null, "activity_regularizer": null, "kernel_constraint": null, "bias_constraint": null}, "name": "block2-02_expand_conv", "inbound_nodes": [[["block2-01_project_bn", 0, 0, {}]]]}, {"class_name": "BatchNormalization", "config": {"name": "block2-02_expand_bn", "trainable": false, "dtype": "float32", "axis": [3], "momentum": 0.9, "epsilon": 0.001, "center": true, "scale": true, "beta_initializer": {"class_name": "Zeros", "config": {}}, "gamma_initializer": {"class_name": "Ones", "config": {}}, "moving_mean_initializer": {"class_name": "Zeros", "config": {}}, "moving_variance_initializer": {"class_name": "Ones", "config": {}}, "beta_regularizer": null, "gamma_regularizer": null, "beta_constraint": null, "gamma_constraint": null}, "name": "block2-02_expand_bn", "inbound_nodes": [[["block2-02_expand_conv", 0, 0, {}]]]}, {"class_name": "Activation", "config": {"name": "block2-02_expand_activation", "trainable": false, "dtype": "float32", "activation": "swish"}, "name": "block2-02_expand_activation", "inbound_nodes": [[["block2-02_expand_bn", 0, 0, {}]]]}, {"class_name": "Conv2D", "config": {"name": "block2-02_project_conv", "trainable": false, "dtype": "float32", "filters": 32, "kernel_size": [1, 1], "strides": [1, 1], "padding": "same", "data_format": "channels_last", "dilation_rate": [1, 1], "groups": 1, "activation": "linear", "use_bias": false, "kernel_initializer": {"class_name": "VarianceScaling", "config": {"scale": 2.0, "mode": "fan_out", "distribution": "truncated_normal", "seed": null}}, "bias_initializer": {"class_name": "Zeros", "config": {}}, "kernel_regularizer": null, "bias_regularizer": null, "activity_regularizer": null, "kernel_constraint": null, "bias_constraint": null}, "name": "block2-02_project_conv", "inbound_nodes": [[["block2-02_expand_activation", 0, 0, {}]]]}, {"class_name": "BatchNormalization", "config": {"name": "block2-02_project_bn", "trainable": false, "dtype": "float32", "axis": [3], "momentum": 0.9, "epsilon": 0.001, "center": true, "scale": true, "beta_initializer": {"class_name": "Zeros", "config": {}}, "gamma_initializer": {"class_name": "Ones", "config": {}}, "moving_mean_initializer": {"class_name": "Zeros", "config": {}}, "moving_variance_initializer": {"class_name": "Ones", "config": {}}, "beta_regularizer": null, "gamma_regularizer": null, "beta_constraint": null, "gamma_constraint": null}, "name": "block2-02_project_bn", "inbound_nodes": [[["block2-02_project_conv", 0, 0, {}]]]}, {"class_name": "Dropout", "config": {"name": "block2-02_drop", "trainable": false, "dtype": "float32", "rate": 0.01904761904761905, "noise_shape": [null, 1, 1, 1], "seed": null}, "name": "block2-02_drop", "inbound_nodes": [[["block2-02_project_bn", 0, 0, {}]]]}, {"class_name": "Add", "config": {"name": "block2-02_add", "trainable": false, "dtype": "float32"}, "name": "block2-02_add", "inbound_nodes": [[["block2-02_drop", 0, 0, {}], ["block2-01_project_bn", 0, 0, {}]]]}, {"class_name": "Conv2D", "config": {"name": "block3-01_expand_conv", "trainable": false, "dtype": "float32", "filters": 128, "kernel_size": [3, 3], "strides": [2, 2], "padding": "same", "data_format": "channels_last", "dilation_rate": [1, 1], "groups": 1, "activation": "linear", "use_bias": false, "kernel_initializer": {"class_name": "VarianceScaling", "config": {"scale": 2.0, "mode": "fan_out", "distribution": "truncated_normal", "seed": null}}, "bias_initializer": {"class_name": "Zeros", "config": {}}, "kernel_regularizer": null, "bias_regularizer": null, "activity_regularizer": null, "kernel_constraint": null, "bias_constraint": null}, "name": "block3-01_expand_conv", "inbound_nodes": [[["block2-02_add", 0, 0, {}]]]}, {"class_name": "BatchNormalization", "config": {"name": "block3-01_expand_bn", "trainable": false, "dtype": "float32", "axis": [3], "momentum": 0.9, "epsilon": 0.001, "center": true, "scale": true, "beta_initializer": {"class_name": "Zeros", "config": {}}, "gamma_initializer": {"class_name": "Ones", "config": {}}, "moving_mean_initializer": {"class_name": "Zeros", "config": {}}, "moving_variance_initializer": {"class_name": "Ones", "config": {}}, "beta_regularizer": null, "gamma_regularizer": null, "beta_constraint": null, "gamma_constraint": null}, "name": "block3-01_expand_bn", "inbound_nodes": [[["block3-01_expand_conv", 0, 0, {}]]]}, {"class_name": "Activation", "config": {"name": "block3-01_expand_activation", "trainable": false, "dtype": "float32", "activation": "swish"}, "name": "block3-01_expand_activation", "inbound_nodes": [[["block3-01_expand_bn", 0, 0, {}]]]}, {"class_name": "Conv2D", "config": {"name": "block3-01_project_conv", "trainable": false, "dtype": "float32", "filters": 48, "kernel_size": [1, 1], "strides": [1, 1], "padding": "same", "data_format": "channels_last", "dilation_rate": [1, 1], "groups": 1, "activation": "linear", "use_bias": false, "kernel_initializer": {"class_name": "VarianceScaling", "config": {"scale": 2.0, "mode": "fan_out", "distribution": "truncated_normal", "seed": null}}, "bias_initializer": {"class_name": "Zeros", "config": {}}, "kernel_regularizer": null, "bias_regularizer": null, "activity_regularizer": null, "kernel_constraint": null, "bias_constraint": null}, "name": "block3-01_project_conv", "inbound_nodes": [[["block3-01_expand_activation", 0, 0, {}]]]}, {"class_name": "BatchNormalization", "config": {"name": "block3-01_project_bn", "trainable": false, "dtype": "float32", "axis": [3], "momentum": 0.9, "epsilon": 0.001, "center": true, "scale": true, "beta_initializer": {"class_name": "Zeros", "config": {}}, "gamma_initializer": {"class_name": "Ones", "config": {}}, "moving_mean_initializer": {"class_name": "Zeros", "config": {}}, "moving_variance_initializer": {"class_name": "Ones", "config": {}}, "beta_regularizer": null, "gamma_regularizer": null, "beta_constraint": null, "gamma_constraint": null}, "name": "block3-01_project_bn", "inbound_nodes": [[["block3-01_project_conv", 0, 0, {}]]]}, {"class_name": "Conv2D", "config": {"name": "block3-02_expand_conv", "trainable": false, "dtype": "float32", "filters": 192, "kernel_size": [3, 3], "strides": [1, 1], "padding": "same", "data_format": "channels_last", "dilation_rate": [1, 1], "groups": 1, "activation": "linear", "use_bias": false, "kernel_initializer": {"class_name": "VarianceScaling", "config": {"scale": 2.0, "mode": "fan_out", "distribution": "truncated_normal", "seed": null}}, "bias_initializer": {"class_name": "Zeros", "config": {}}, "kernel_regularizer": null, "bias_regularizer": null, "activity_regularizer": null, "kernel_constraint": null, "bias_constraint": null}, "name": "block3-02_expand_conv", "inbound_nodes": [[["block3-01_project_bn", 0, 0, {}]]]}, {"class_name": "BatchNormalization", "config": {"name": "block3-02_expand_bn", "trainable": false, "dtype": "float32", "axis": [3], "momentum": 0.9, "epsilon": 0.001, "center": true, "scale": true, "beta_initializer": {"class_name": "Zeros", "config": {}}, "gamma_initializer": {"class_name": "Ones", "config": {}}, "moving_mean_initializer": {"class_name": "Zeros", "config": {}}, "moving_variance_initializer": {"class_name": "Ones", "config": {}}, "beta_regularizer": null, "gamma_regularizer": null, "beta_constraint": null, "gamma_constraint": null}, "name": "block3-02_expand_bn", "inbound_nodes": [[["block3-02_expand_conv", 0, 0, {}]]]}, {"class_name": "Activation", "config": {"name": "block3-02_expand_activation", "trainable": false, "dtype": "float32", "activation": "swish"}, "name": "block3-02_expand_activation", "inbound_nodes": [[["block3-02_expand_bn", 0, 0, {}]]]}, {"class_name": "Conv2D", "config": {"name": "block3-02_project_conv", "trainable": false, "dtype": "float32", "filters": 48, "kernel_size": [1, 1], "strides": [1, 1], "padding": "same", "data_format": "channels_last", "dilation_rate": [1, 1], "groups": 1, "activation": "linear", "use_bias": false, "kernel_initializer": {"class_name": "VarianceScaling", "config": {"scale": 2.0, "mode": "fan_out", "distribution": "truncated_normal", "seed": null}}, "bias_initializer": {"class_name": "Zeros", "config": {}}, "kernel_regularizer": null, "bias_regularizer": null, "activity_regularizer": null, "kernel_constraint": null, "bias_constraint": null}, "name": "block3-02_project_conv", "inbound_nodes": [[["block3-02_expand_activation", 0, 0, {}]]]}, {"class_name": "BatchNormalization", "config": {"name": "block3-02_project_bn", "trainable": false, "dtype": "float32", "axis": [3], "momentum": 0.9, "epsilon": 0.001, "center": true, "scale": true, "beta_initializer": {"class_name": "Zeros", "config": {}}, "gamma_initializer": {"class_name": "Ones", "config": {}}, "moving_mean_initializer": {"class_name": "Zeros", "config": {}}, "moving_variance_initializer": {"class_name": "Ones", "config": {}}, "beta_regularizer": null, "gamma_regularizer": null, "beta_constraint": null, "gamma_constraint": null}, "name": "block3-02_project_bn", "inbound_nodes": [[["block3-02_project_conv", 0, 0, {}]]]}, {"class_name": "Dropout", "config": {"name": "block3-02_drop", "trainable": false, "dtype": "float32", "rate": 0.0380952380952381, "noise_shape": [null, 1, 1, 1], "seed": null}, "name": "block3-02_drop", "inbound_nodes": [[["block3-02_project_bn", 0, 0, {}]]]}, {"class_name": "Add", "config": {"name": "block3-02_add", "trainable": false, "dtype": "float32"}, "name": "block3-02_add", "inbound_nodes": [[["block3-02_drop", 0, 0, {}], ["block3-01_project_bn", 0, 0, {}]]]}, {"class_name": "Conv2D", "config": {"name": "block4-01_expand_conv", "trainable": false, "dtype": "float32", "filters": 192, "kernel_size": [1, 1], "strides": [1, 1], "padding": "same", "data_format": "channels_last", "dilation_rate": [1, 1], "groups": 1, "activation": "linear", "use_bias": false, "kernel_initializer": {"class_name": "VarianceScaling", "config": {"scale": 2.0, "mode": "fan_out", "distribution": "truncated_normal", "seed": null}}, "bias_initializer": {"class_name": "Zeros", "config": {}}, "kernel_regularizer": null, "bias_regularizer": null, "activity_regularizer": null, "kernel_constraint": null, "bias_constraint": null}, "name": "block4-01_expand_conv", "inbound_nodes": [[["block3-02_add", 0, 0, {}]]]}, {"class_name": "BatchNormalization", "config": {"name": "block4-01_expand_bn", "trainable": false, "dtype": "float32", "axis": [3], "momentum": 0.9, "epsilon": 0.001, "center": true, "scale": true, "beta_initializer": {"class_name": "Zeros", "config": {}}, "gamma_initializer": {"class_name": "Ones", "config": {}}, "moving_mean_initializer": {"class_name": "Zeros", "config": {}}, "moving_variance_initializer": {"class_name": "Ones", "config": {}}, "beta_regularizer": null, "gamma_regularizer": null, "beta_constraint": null, "gamma_constraint": null}, "name": "block4-01_expand_bn", "inbound_nodes": [[["block4-01_expand_conv", 0, 0, {}]]]}, {"class_name": "Activation", "config": {"name": "block4-01_expand_activation", "trainable": false, "dtype": "float32", "activation": "swish"}, "name": "block4-01_expand_activation", "inbound_nodes": [[["block4-01_expand_bn", 0, 0, {}]]]}, {"class_name": "DepthwiseConv2D", "config": {"name": "block4-01_dwconv2", "trainable": false, "dtype": "float32", "kernel_size": [3, 3], "strides": [2, 2], "padding": "same", "data_format": "channels_last", "dilation_rate": [1, 1], "groups": 1, "activation": "linear", "use_bias": false, "bias_initializer": {"class_name": "Zeros", "config": {}}, "bias_regularizer": null, "activity_regularizer": null, "bias_constraint": null, "depth_multiplier": 1, "depthwise_initializer": {"class_name": "VarianceScaling", "config": {"scale": 2.0, "mode": "fan_out", "distribution": "truncated_normal", "seed": null}}, "depthwise_regularizer": null, "depthwise_constraint": null}, "name": "block4-01_dwconv2", "inbound_nodes": [[["block4-01_expand_activation", 0, 0, {}]]]}, {"class_name": "BatchNormalization", "config": {"name": "block4-01_bn", "trainable": false, "dtype": "float32", "axis": [3], "momentum": 0.9, "epsilon": 0.001, "center": true, "scale": true, "beta_initializer": {"class_name": "Zeros", "config": {}}, "gamma_initializer": {"class_name": "Ones", "config": {}}, "moving_mean_initializer": {"class_name": "Zeros", "config": {}}, "moving_variance_initializer": {"class_name": "Ones", "config": {}}, "beta_regularizer": null, "gamma_regularizer": null, "beta_constraint": null, "gamma_constraint": null}, "name": "block4-01_bn", "inbound_nodes": [[["block4-01_dwconv2", 0, 0, {}]]]}, {"class_name": "Activation", "config": {"name": "block4-01_activation", "trainable": false, "dtype": "float32", "activation": "swish"}, "name": "block4-01_activation", "inbound_nodes": [[["block4-01_bn", 0, 0, {}]]]}, {"class_name": "GlobalAveragePooling2D", "config": {"name": "block4-01_se_squeeze", "trainable": false, "dtype": "float32", "data_format": "channels_last", "keepdims": false}, "name": "block4-01_se_squeeze", "inbound_nodes": [[["block4-01_activation", 0, 0, {}]]]}, {"class_name": "Reshape", "config": {"name": "block4-01_se_reshape", "trainable": false, "dtype": "float32", "target_shape": [1, 1, 192]}, "name": "block4-01_se_reshape", "inbound_nodes": [[["block4-01_se_squeeze", 0, 0, {}]]]}, {"class_name": "Conv2D", "config": {"name": "block4-01_se_reduce", "trainable": false, "dtype": "float32", "filters": 12, "kernel_size": [1, 1], "strides": [1, 1], "padding": "same", "data_format": "channels_last", "dilation_rate": [1, 1], "groups": 1, "activation": "swish", "use_bias": true, "kernel_initializer": {"class_name": "VarianceScaling", "config": {"scale": 2.0, "mode": "fan_out", "distribution": "truncated_normal", "seed": null}}, "bias_initializer": {"class_name": "Zeros", "config": {}}, "kernel_regularizer": null, "bias_regularizer": null, "activity_regularizer": null, "kernel_constraint": null, "bias_constraint": null}, "name": "block4-01_se_reduce", "inbound_nodes": [[["block4-01_se_reshape", 0, 0, {}]]]}, {"class_name": "Conv2D", "config": {"name": "block4-01_se_expand", "trainable": false, "dtype": "float32", "filters": 192, "kernel_size": [1, 1], "strides": [1, 1], "padding": "same", "data_format": "channels_last", "dilation_rate": [1, 1], "groups": 1, "activation": "sigmoid", "use_bias": true, "kernel_initializer": {"class_name": "VarianceScaling", "config": {"scale": 2.0, "mode": "fan_out", "distribution": "truncated_normal", "seed": null}}, "bias_initializer": {"class_name": "Zeros", "config": {}}, "kernel_regularizer": null, "bias_regularizer": null, "activity_regularizer": null, "kernel_constraint": null, "bias_constraint": null}, "name": "block4-01_se_expand", "inbound_nodes": [[["block4-01_se_reduce", 0, 0, {}]]]}, {"class_name": "Multiply", "config": {"name": "block4-01_se_excite", "trainable": false, "dtype": "float32"}, "name": "block4-01_se_excite", "inbound_nodes": [[["block4-01_activation", 0, 0, {}], ["block4-01_se_expand", 0, 0, {}]]]}, {"class_name": "Conv2D", "config": {"name": "block4-01_project_conv", "trainable": false, "dtype": "float32", "filters": 96, "kernel_size": [1, 1], "strides": [1, 1], "padding": "same", "data_format": "channels_last", "dilation_rate": [1, 1], "groups": 1, "activation": "linear", "use_bias": false, "kernel_initializer": {"class_name": "VarianceScaling", "config": {"scale": 2.0, "mode": "fan_out", "distribution": "truncated_normal", "seed": null}}, "bias_initializer": {"class_name": "Zeros", "config": {}}, "kernel_regularizer": null, "bias_regularizer": null, "activity_regularizer": null, "kernel_constraint": null, "bias_constraint": null}, "name": "block4-01_project_conv", "inbound_nodes": [[["block4-01_se_excite", 0, 0, {}]]]}, {"class_name": "BatchNormalization", "config": {"name": "block4-01_project_bn", "trainable": false, "dtype": "float32", "axis": [3], "momentum": 0.9, "epsilon": 0.001, "center": true, "scale": true, "beta_initializer": {"class_name": "Zeros", "config": {}}, "gamma_initializer": {"class_name": "Ones", "config": {}}, "moving_mean_initializer": {"class_name": "Zeros", "config": {}}, "moving_variance_initializer": {"class_name": "Ones", "config": {}}, "beta_regularizer": null, "gamma_regularizer": null, "beta_constraint": null, "gamma_constraint": null}, "name": "block4-01_project_bn", "inbound_nodes": [[["block4-01_project_conv", 0, 0, {}]]]}, {"class_name": "Conv2D", "config": {"name": "block4-02_expand_conv", "trainable": false, "dtype": "float32", "filters": 384, "kernel_size": [1, 1], "strides": [1, 1], "padding": "same", "data_format": "channels_last", "dilation_rate": [1, 1], "groups": 1, "activation": "linear", "use_bias": false, "kernel_initializer": {"class_name": "VarianceScaling", "config": {"scale": 2.0, "mode": "fan_out", "distribution": "truncated_normal", "seed": null}}, "bias_initializer": {"class_name": "Zeros", "config": {}}, "kernel_regularizer": null, "bias_regularizer": null, "activity_regularizer": null, "kernel_constraint": null, "bias_constraint": null}, "name": "block4-02_expand_conv", "inbound_nodes": [[["block4-01_project_bn", 0, 0, {}]]]}, {"class_name": "BatchNormalization", "config": {"name": "block4-02_expand_bn", "trainable": false, "dtype": "float32", "axis": [3], "momentum": 0.9, "epsilon": 0.001, "center": true, "scale": true, "beta_initializer": {"class_name": "Zeros", "config": {}}, "gamma_initializer": {"class_name": "Ones", "config": {}}, "moving_mean_initializer": {"class_name": "Zeros", "config": {}}, "moving_variance_initializer": {"class_name": "Ones", "config": {}}, "beta_regularizer": null, "gamma_regularizer": null, "beta_constraint": null, "gamma_constraint": null}, "name": "block4-02_expand_bn", "inbound_nodes": [[["block4-02_expand_conv", 0, 0, {}]]]}, {"class_name": "Activation", "config": {"name": "block4-02_expand_activation", "trainable": false, "dtype": "float32", "activation": "swish"}, "name": "block4-02_expand_activation", "inbound_nodes": [[["block4-02_expand_bn", 0, 0, {}]]]}, {"class_name": "DepthwiseConv2D", "config": {"name": "block4-02_dwconv2", "trainable": false, "dtype": "float32", "kernel_size": [3, 3], "strides": [1, 1], "padding": "same", "data_format": "channels_last", "dilation_rate": [1, 1], "groups": 1, "activation": "linear", "use_bias": false, "bias_initializer": {"class_name": "Zeros", "config": {}}, "bias_regularizer": null, "activity_regularizer": null, "bias_constraint": null, "depth_multiplier": 1, "depthwise_initializer": {"class_name": "VarianceScaling", "config": {"scale": 2.0, "mode": "fan_out", "distribution": "truncated_normal", "seed": null}}, "depthwise_regularizer": null, "depthwise_constraint": null}, "name": "block4-02_dwconv2", "inbound_nodes": [[["block4-02_expand_activation", 0, 0, {}]]]}, {"class_name": "BatchNormalization", "config": {"name": "block4-02_bn", "trainable": false, "dtype": "float32", "axis": [3], "momentum": 0.9, "epsilon": 0.001, "center": true, "scale": true, "beta_initializer": {"class_name": "Zeros", "config": {}}, "gamma_initializer": {"class_name": "Ones", "config": {}}, "moving_mean_initializer": {"class_name": "Zeros", "config": {}}, "moving_variance_initializer": {"class_name": "Ones", "config": {}}, "beta_regularizer": null, "gamma_regularizer": null, "beta_constraint": null, "gamma_constraint": null}, "name": "block4-02_bn", "inbound_nodes": [[["block4-02_dwconv2", 0, 0, {}]]]}, {"class_name": "Activation", "config": {"name": "block4-02_activation", "trainable": false, "dtype": "float32", "activation": "swish"}, "name": "block4-02_activation", "inbound_nodes": [[["block4-02_bn", 0, 0, {}]]]}, {"class_name": "GlobalAveragePooling2D", "config": {"name": "block4-02_se_squeeze", "trainable": false, "dtype": "float32", "data_format": "channels_last", "keepdims": false}, "name": "block4-02_se_squeeze", "inbound_nodes": [[["block4-02_activation", 0, 0, {}]]]}, {"class_name": "Reshape", "config": {"name": "block4-02_se_reshape", "trainable": false, "dtype": "float32", "target_shape": [1, 1, 384]}, "name": "block4-02_se_reshape", "inbound_nodes": [[["block4-02_se_squeeze", 0, 0, {}]]]}, {"class_name": "Conv2D", "config": {"name": "block4-02_se_reduce", "trainable": false, "dtype": "float32", "filters": 24, "kernel_size": [1, 1], "strides": [1, 1], "padding": "same", "data_format": "channels_last", "dilation_rate": [1, 1], "groups": 1, "activation": "swish", "use_bias": true, "kernel_initializer": {"class_name": "VarianceScaling", "config": {"scale": 2.0, "mode": "fan_out", "distribution": "truncated_normal", "seed": null}}, "bias_initializer": {"class_name": "Zeros", "config": {}}, "kernel_regularizer": null, "bias_regularizer": null, "activity_regularizer": null, "kernel_constraint": null, "bias_constraint": null}, "name": "block4-02_se_reduce", "inbound_nodes": [[["block4-02_se_reshape", 0, 0, {}]]]}, {"class_name": "Conv2D", "config": {"name": "block4-02_se_expand", "trainable": false, "dtype": "float32", "filters": 384, "kernel_size": [1, 1], "strides": [1, 1], "padding": "same", "data_format": "channels_last", "dilation_rate": [1, 1], "groups": 1, "activation": "sigmoid", "use_bias": true, "kernel_initializer": {"class_name": "VarianceScaling", "config": {"scale": 2.0, "mode": "fan_out", "distribution": "truncated_normal", "seed": null}}, "bias_initializer": {"class_name": "Zeros", "config": {}}, "kernel_regularizer": null, "bias_regularizer": null, "activity_regularizer": null, "kernel_constraint": null, "bias_constraint": null}, "name": "block4-02_se_expand", "inbound_nodes": [[["block4-02_se_reduce", 0, 0, {}]]]}, {"class_name": "Multiply", "config": {"name": "block4-02_se_excite", "trainable": false, "dtype": "float32"}, "name": "block4-02_se_excite", "inbound_nodes": [[["block4-02_activation", 0, 0, {}], ["block4-02_se_expand", 0, 0, {}]]]}, {"class_name": "Conv2D", "config": {"name": "block4-02_project_conv", "trainable": false, "dtype": "float32", "filters": 96, "kernel_size": [1, 1], "strides": [1, 1], "padding": "same", "data_format": "channels_last", "dilation_rate": [1, 1], "groups": 1, "activation": "linear", "use_bias": false, "kernel_initializer": {"class_name": "VarianceScaling", "config": {"scale": 2.0, "mode": "fan_out", "distribution": "truncated_normal", "seed": null}}, "bias_initializer": {"class_name": "Zeros", "config": {}}, "kernel_regularizer": null, "bias_regularizer": null, "activity_regularizer": null, "kernel_constraint": null, "bias_constraint": null}, "name": "block4-02_project_conv", "inbound_nodes": [[["block4-02_se_excite", 0, 0, {}]]]}, {"class_name": "BatchNormalization", "config": {"name": "block4-02_project_bn", "trainable": false, "dtype": "float32", "axis": [3], "momentum": 0.9, "epsilon": 0.001, "center": true, "scale": true, "beta_initializer": {"class_name": "Zeros", "config": {}}, "gamma_initializer": {"class_name": "Ones", "config": {}}, "moving_mean_initializer": {"class_name": "Zeros", "config": {}}, "moving_variance_initializer": {"class_name": "Ones", "config": {}}, "beta_regularizer": null, "gamma_regularizer": null, "beta_constraint": null, "gamma_constraint": null}, "name": "block4-02_project_bn", "inbound_nodes": [[["block4-02_project_conv", 0, 0, {}]]]}, {"class_name": "Dropout", "config": {"name": "block4-02_drop", "trainable": false, "dtype": "float32", "rate": 0.05714285714285715, "noise_shape": [null, 1, 1, 1], "seed": null}, "name": "block4-02_drop", "inbound_nodes": [[["block4-02_project_bn", 0, 0, {}]]]}, {"class_name": "Add", "config": {"name": "block4-02_add", "trainable": false, "dtype": "float32"}, "name": "block4-02_add", "inbound_nodes": [[["block4-02_drop", 0, 0, {}], ["block4-01_project_bn", 0, 0, {}]]]}, {"class_name": "Conv2D", "config": {"name": "block4-03_expand_conv", "trainable": false, "dtype": "float32", "filters": 384, "kernel_size": [1, 1], "strides": [1, 1], "padding": "same", "data_format": "channels_last", "dilation_rate": [1, 1], "groups": 1, "activation": "linear", "use_bias": false, "kernel_initializer": {"class_name": "VarianceScaling", "config": {"scale": 2.0, "mode": "fan_out", "distribution": "truncated_normal", "seed": null}}, "bias_initializer": {"class_name": "Zeros", "config": {}}, "kernel_regularizer": null, "bias_regularizer": null, "activity_regularizer": null, "kernel_constraint": null, "bias_constraint": null}, "name": "block4-03_expand_conv", "inbound_nodes": [[["block4-02_add", 0, 0, {}]]]}, {"class_name": "BatchNormalization", "config": {"name": "block4-03_expand_bn", "trainable": false, "dtype": "float32", "axis": [3], "momentum": 0.9, "epsilon": 0.001, "center": true, "scale": true, "beta_initializer": {"class_name": "Zeros", "config": {}}, "gamma_initializer": {"class_name": "Ones", "config": {}}, "moving_mean_initializer": {"class_name": "Zeros", "config": {}}, "moving_variance_initializer": {"class_name": "Ones", "config": {}}, "beta_regularizer": null, "gamma_regularizer": null, "beta_constraint": null, "gamma_constraint": null}, "name": "block4-03_expand_bn", "inbound_nodes": [[["block4-03_expand_conv", 0, 0, {}]]]}, {"class_name": "Activation", "config": {"name": "block4-03_expand_activation", "trainable": false, "dtype": "float32", "activation": "swish"}, "name": "block4-03_expand_activation", "inbound_nodes": [[["block4-03_expand_bn", 0, 0, {}]]]}, {"class_name": "DepthwiseConv2D", "config": {"name": "block4-03_dwconv2", "trainable": false, "dtype": "float32", "kernel_size": [3, 3], "strides": [1, 1], "padding": "same", "data_format": "channels_last", "dilation_rate": [1, 1], "groups": 1, "activation": "linear", "use_bias": false, "bias_initializer": {"class_name": "Zeros", "config": {}}, "bias_regularizer": null, "activity_regularizer": null, "bias_constraint": null, "depth_multiplier": 1, "depthwise_initializer": {"class_name": "VarianceScaling", "config": {"scale": 2.0, "mode": "fan_out", "distribution": "truncated_normal", "seed": null}}, "depthwise_regularizer": null, "depthwise_constraint": null}, "name": "block4-03_dwconv2", "inbound_nodes": [[["block4-03_expand_activation", 0, 0, {}]]]}, {"class_name": "BatchNormalization", "config": {"name": "block4-03_bn", "trainable": false, "dtype": "float32", "axis": [3], "momentum": 0.9, "epsilon": 0.001, "center": true, "scale": true, "beta_initializer": {"class_name": "Zeros", "config": {}}, "gamma_initializer": {"class_name": "Ones", "config": {}}, "moving_mean_initializer": {"class_name": "Zeros", "config": {}}, "moving_variance_initializer": {"class_name": "Ones", "config": {}}, "beta_regularizer": null, "gamma_regularizer": null, "beta_constraint": null, "gamma_constraint": null}, "name": "block4-03_bn", "inbound_nodes": [[["block4-03_dwconv2", 0, 0, {}]]]}, {"class_name": "Activation", "config": {"name": "block4-03_activation", "trainable": false, "dtype": "float32", "activation": "swish"}, "name": "block4-03_activation", "inbound_nodes": [[["block4-03_bn", 0, 0, {}]]]}, {"class_name": "GlobalAveragePooling2D", "config": {"name": "block4-03_se_squeeze", "trainable": false, "dtype": "float32", "data_format": "channels_last", "keepdims": false}, "name": "block4-03_se_squeeze", "inbound_nodes": [[["block4-03_activation", 0, 0, {}]]]}, {"class_name": "Reshape", "config": {"name": "block4-03_se_reshape", "trainable": false, "dtype": "float32", "target_shape": [1, 1, 384]}, "name": "block4-03_se_reshape", "inbound_nodes": [[["block4-03_se_squeeze", 0, 0, {}]]]}, {"class_name": "Conv2D", "config": {"name": "block4-03_se_reduce", "trainable": false, "dtype": "float32", "filters": 24, "kernel_size": [1, 1], "strides": [1, 1], "padding": "same", "data_format": "channels_last", "dilation_rate": [1, 1], "groups": 1, "activation": "swish", "use_bias": true, "kernel_initializer": {"class_name": "VarianceScaling", "config": {"scale": 2.0, "mode": "fan_out", "distribution": "truncated_normal", "seed": null}}, "bias_initializer": {"class_name": "Zeros", "config": {}}, "kernel_regularizer": null, "bias_regularizer": null, "activity_regularizer": null, "kernel_constraint": null, "bias_constraint": null}, "name": "block4-03_se_reduce", "inbound_nodes": [[["block4-03_se_reshape", 0, 0, {}]]]}, {"class_name": "Conv2D", "config": {"name": "block4-03_se_expand", "trainable": false, "dtype": "float32", "filters": 384, "kernel_size": [1, 1], "strides": [1, 1], "padding": "same", "data_format": "channels_last", "dilation_rate": [1, 1], "groups": 1, "activation": "sigmoid", "use_bias": true, "kernel_initializer": {"class_name": "VarianceScaling", "config": {"scale": 2.0, "mode": "fan_out", "distribution": "truncated_normal", "seed": null}}, "bias_initializer": {"class_name": "Zeros", "config": {}}, "kernel_regularizer": null, "bias_regularizer": null, "activity_regularizer": null, "kernel_constraint": null, "bias_constraint": null}, "name": "block4-03_se_expand", "inbound_nodes": [[["block4-03_se_reduce", 0, 0, {}]]]}, {"class_name": "Multiply", "config": {"name": "block4-03_se_excite", "trainable": false, "dtype": "float32"}, "name": "block4-03_se_excite", "inbound_nodes": [[["block4-03_activation", 0, 0, {}], ["block4-03_se_expand", 0, 0, {}]]]}, {"class_name": "Conv2D", "config": {"name": "block4-03_project_conv", "trainable": false, "dtype": "float32", "filters": 96, "kernel_size": [1, 1], "strides": [1, 1], "padding": "same", "data_format": "channels_last", "dilation_rate": [1, 1], "groups": 1, "activation": "linear", "use_bias": false, "kernel_initializer": {"class_name": "VarianceScaling", "config": {"scale": 2.0, "mode": "fan_out", "distribution": "truncated_normal", "seed": null}}, "bias_initializer": {"class_name": "Zeros", "config": {}}, "kernel_regularizer": null, "bias_regularizer": null, "activity_regularizer": null, "kernel_constraint": null, "bias_constraint": null}, "name": "block4-03_project_conv", "inbound_nodes": [[["block4-03_se_excite", 0, 0, {}]]]}, {"class_name": "BatchNormalization", "config": {"name": "block4-03_project_bn", "trainable": false, "dtype": "float32", "axis": [3], "momentum": 0.9, "epsilon": 0.001, "center": true, "scale": true, "beta_initializer": {"class_name": "Zeros", "config": {}}, "gamma_initializer": {"class_name": "Ones", "config": {}}, "moving_mean_initializer": {"class_name": "Zeros", "config": {}}, "moving_variance_initializer": {"class_name": "Ones", "config": {}}, "beta_regularizer": null, "gamma_regularizer": null, "beta_constraint": null, "gamma_constraint": null}, "name": "block4-03_project_bn", "inbound_nodes": [[["block4-03_project_conv", 0, 0, {}]]]}, {"class_name": "Dropout", "config": {"name": "block4-03_drop", "trainable": false, "dtype": "float32", "rate": 0.06666666666666668, "noise_shape": [null, 1, 1, 1], "seed": null}, "name": "block4-03_drop", "inbound_nodes": [[["block4-03_project_bn", 0, 0, {}]]]}, {"class_name": "Add", "config": {"name": "block4-03_add", "trainable": false, "dtype": "float32"}, "name": "block4-03_add", "inbound_nodes": [[["block4-03_drop", 0, 0, {}], ["block4-02_add", 0, 0, {}]]]}, {"class_name": "Conv2D", "config": {"name": "block5-01_expand_conv", "trainable": false, "dtype": "float32", "filters": 576, "kernel_size": [1, 1], "strides": [1, 1], "padding": "same", "data_format": "channels_last", "dilation_rate": [1, 1], "groups": 1, "activation": "linear", "use_bias": false, "kernel_initializer": {"class_name": "VarianceScaling", "config": {"scale": 2.0, "mode": "fan_out", "distribution": "truncated_normal", "seed": null}}, "bias_initializer": {"class_name": "Zeros", "config": {}}, "kernel_regularizer": null, "bias_regularizer": null, "activity_regularizer": null, "kernel_constraint": null, "bias_constraint": null}, "name": "block5-01_expand_conv", "inbound_nodes": [[["block4-03_add", 0, 0, {}]]]}, {"class_name": "BatchNormalization", "config": {"name": "block5-01_expand_bn", "trainable": false, "dtype": "float32", "axis": [3], "momentum": 0.9, "epsilon": 0.001, "center": true, "scale": true, "beta_initializer": {"class_name": "Zeros", "config": {}}, "gamma_initializer": {"class_name": "Ones", "config": {}}, "moving_mean_initializer": {"class_name": "Zeros", "config": {}}, "moving_variance_initializer": {"class_name": "Ones", "config": {}}, "beta_regularizer": null, "gamma_regularizer": null, "beta_constraint": null, "gamma_constraint": null}, "name": "block5-01_expand_bn", "inbound_nodes": [[["block5-01_expand_conv", 0, 0, {}]]]}, {"class_name": "Activation", "config": {"name": "block5-01_expand_activation", "trainable": false, "dtype": "float32", "activation": "swish"}, "name": "block5-01_expand_activation", "inbound_nodes": [[["block5-01_expand_bn", 0, 0, {}]]]}, {"class_name": "DepthwiseConv2D", "config": {"name": "block5-01_dwconv2", "trainable": false, "dtype": "float32", "kernel_size": [3, 3], "strides": [1, 1], "padding": "same", "data_format": "channels_last", "dilation_rate": [1, 1], "groups": 1, "activation": "linear", "use_bias": false, "bias_initializer": {"class_name": "Zeros", "config": {}}, "bias_regularizer": null, "activity_regularizer": null, "bias_constraint": null, "depth_multiplier": 1, "depthwise_initializer": {"class_name": "VarianceScaling", "config": {"scale": 2.0, "mode": "fan_out", "distribution": "truncated_normal", "seed": null}}, "depthwise_regularizer": null, "depthwise_constraint": null}, "name": "block5-01_dwconv2", "inbound_nodes": [[["block5-01_expand_activation", 0, 0, {}]]]}, {"class_name": "BatchNormalization", "config": {"name": "block5-01_bn", "trainable": false, "dtype": "float32", "axis": [3], "momentum": 0.9, "epsilon": 0.001, "center": true, "scale": true, "beta_initializer": {"class_name": "Zeros", "config": {}}, "gamma_initializer": {"class_name": "Ones", "config": {}}, "moving_mean_initializer": {"class_name": "Zeros", "config": {}}, "moving_variance_initializer": {"class_name": "Ones", "config": {}}, "beta_regularizer": null, "gamma_regularizer": null, "beta_constraint": null, "gamma_constraint": null}, "name": "block5-01_bn", "inbound_nodes": [[["block5-01_dwconv2", 0, 0, {}]]]}, {"class_name": "Activation", "config": {"name": "block5-01_activation", "trainable": false, "dtype": "float32", "activation": "swish"}, "name": "block5-01_activation", "inbound_nodes": [[["block5-01_bn", 0, 0, {}]]]}, {"class_name": "GlobalAveragePooling2D", "config": {"name": "block5-01_se_squeeze", "trainable": false, "dtype": "float32", "data_format": "channels_last", "keepdims": false}, "name": "block5-01_se_squeeze", "inbound_nodes": [[["block5-01_activation", 0, 0, {}]]]}, {"class_name": "Reshape", "config": {"name": "block5-01_se_reshape", "trainable": false, "dtype": "float32", "target_shape": [1, 1, 576]}, "name": "block5-01_se_reshape", "inbound_nodes": [[["block5-01_se_squeeze", 0, 0, {}]]]}, {"class_name": "Conv2D", "config": {"name": "block5-01_se_reduce", "trainable": false, "dtype": "float32", "filters": 24, "kernel_size": [1, 1], "strides": [1, 1], "padding": "same", "data_format": "channels_last", "dilation_rate": [1, 1], "groups": 1, "activation": "swish", "use_bias": true, "kernel_initializer": {"class_name": "VarianceScaling", "config": {"scale": 2.0, "mode": "fan_out", "distribution": "truncated_normal", "seed": null}}, "bias_initializer": {"class_name": "Zeros", "config": {}}, "kernel_regularizer": null, "bias_regularizer": null, "activity_regularizer": null, "kernel_constraint": null, "bias_constraint": null}, "name": "block5-01_se_reduce", "inbound_nodes": [[["block5-01_se_reshape", 0, 0, {}]]]}, {"class_name": "Conv2D", "config": {"name": "block5-01_se_expand", "trainable": false, "dtype": "float32", "filters": 576, "kernel_size": [1, 1], "strides": [1, 1], "padding": "same", "data_format": "channels_last", "dilation_rate": [1, 1], "groups": 1, "activation": "sigmoid", "use_bias": true, "kernel_initializer": {"class_name": "VarianceScaling", "config": {"scale": 2.0, "mode": "fan_out", "distribution": "truncated_normal", "seed": null}}, "bias_initializer": {"class_name": "Zeros", "config": {}}, "kernel_regularizer": null, "bias_regularizer": null, "activity_regularizer": null, "kernel_constraint": null, "bias_constraint": null}, "name": "block5-01_se_expand", "inbound_nodes": [[["block5-01_se_reduce", 0, 0, {}]]]}, {"class_name": "Multiply", "config": {"name": "block5-01_se_excite", "trainable": false, "dtype": "float32"}, "name": "block5-01_se_excite", "inbound_nodes": [[["block5-01_activation", 0, 0, {}], ["block5-01_se_expand", 0, 0, {}]]]}, {"class_name": "Conv2D", "config": {"name": "block5-01_project_conv", "trainable": false, "dtype": "float32", "filters": 112, "kernel_size": [1, 1], "strides": [1, 1], "padding": "same", "data_format": "channels_last", "dilation_rate": [1, 1], "groups": 1, "activation": "linear", "use_bias": false, "kernel_initializer": {"class_name": "VarianceScaling", "config": {"scale": 2.0, "mode": "fan_out", "distribution": "truncated_normal", "seed": null}}, "bias_initializer": {"class_name": "Zeros", "config": {}}, "kernel_regularizer": null, "bias_regularizer": null, "activity_regularizer": null, "kernel_constraint": null, "bias_constraint": null}, "name": "block5-01_project_conv", "inbound_nodes": [[["block5-01_se_excite", 0, 0, {}]]]}, {"class_name": "BatchNormalization", "config": {"name": "block5-01_project_bn", "trainable": false, "dtype": "float32", "axis": [3], "momentum": 0.9, "epsilon": 0.001, "center": true, "scale": true, "beta_initializer": {"class_name": "Zeros", "config": {}}, "gamma_initializer": {"class_name": "Ones", "config": {}}, "moving_mean_initializer": {"class_name": "Zeros", "config": {}}, "moving_variance_initializer": {"class_name": "Ones", "config": {}}, "beta_regularizer": null, "gamma_regularizer": null, "beta_constraint": null, "gamma_constraint": null}, "name": "block5-01_project_bn", "inbound_nodes": [[["block5-01_project_conv", 0, 0, {}]]]}, {"class_name": "Conv2D", "config": {"name": "block5-02_expand_conv", "trainable": false, "dtype": "float32", "filters": 672, "kernel_size": [1, 1], "strides": [1, 1], "padding": "same", "data_format": "channels_last", "dilation_rate": [1, 1], "groups": 1, "activation": "linear", "use_bias": false, "kernel_initializer": {"class_name": "VarianceScaling", "config": {"scale": 2.0, "mode": "fan_out", "distribution": "truncated_normal", "seed": null}}, "bias_initializer": {"class_name": "Zeros", "config": {}}, "kernel_regularizer": null, "bias_regularizer": null, "activity_regularizer": null, "kernel_constraint": null, "bias_constraint": null}, "name": "block5-02_expand_conv", "inbound_nodes": [[["block5-01_project_bn", 0, 0, {}]]]}, {"class_name": "BatchNormalization", "config": {"name": "block5-02_expand_bn", "trainable": false, "dtype": "float32", "axis": [3], "momentum": 0.9, "epsilon": 0.001, "center": true, "scale": true, "beta_initializer": {"class_name": "Zeros", "config": {}}, "gamma_initializer": {"class_name": "Ones", "config": {}}, "moving_mean_initializer": {"class_name": "Zeros", "config": {}}, "moving_variance_initializer": {"class_name": "Ones", "config": {}}, "beta_regularizer": null, "gamma_regularizer": null, "beta_constraint": null, "gamma_constraint": null}, "name": "block5-02_expand_bn", "inbound_nodes": [[["block5-02_expand_conv", 0, 0, {}]]]}, {"class_name": "Activation", "config": {"name": "block5-02_expand_activation", "trainable": false, "dtype": "float32", "activation": "swish"}, "name": "block5-02_expand_activation", "inbound_nodes": [[["block5-02_expand_bn", 0, 0, {}]]]}, {"class_name": "DepthwiseConv2D", "config": {"name": "block5-02_dwconv2", "trainable": false, "dtype": "float32", "kernel_size": [3, 3], "strides": [1, 1], "padding": "same", "data_format": "channels_last", "dilation_rate": [1, 1], "groups": 1, "activation": "linear", "use_bias": false, "bias_initializer": {"class_name": "Zeros", "config": {}}, "bias_regularizer": null, "activity_regularizer": null, "bias_constraint": null, "depth_multiplier": 1, "depthwise_initializer": {"class_name": "VarianceScaling", "config": {"scale": 2.0, "mode": "fan_out", "distribution": "truncated_normal", "seed": null}}, "depthwise_regularizer": null, "depthwise_constraint": null}, "name": "block5-02_dwconv2", "inbound_nodes": [[["block5-02_expand_activation", 0, 0, {}]]]}, {"class_name": "BatchNormalization", "config": {"name": "block5-02_bn", "trainable": false, "dtype": "float32", "axis": [3], "momentum": 0.9, "epsilon": 0.001, "center": true, "scale": true, "beta_initializer": {"class_name": "Zeros", "config": {}}, "gamma_initializer": {"class_name": "Ones", "config": {}}, "moving_mean_initializer": {"class_name": "Zeros", "config": {}}, "moving_variance_initializer": {"class_name": "Ones", "config": {}}, "beta_regularizer": null, "gamma_regularizer": null, "beta_constraint": null, "gamma_constraint": null}, "name": "block5-02_bn", "inbound_nodes": [[["block5-02_dwconv2", 0, 0, {}]]]}, {"class_name": "Activation", "config": {"name": "block5-02_activation", "trainable": false, "dtype": "float32", "activation": "swish"}, "name": "block5-02_activation", "inbound_nodes": [[["block5-02_bn", 0, 0, {}]]]}, {"class_name": "GlobalAveragePooling2D", "config": {"name": "block5-02_se_squeeze", "trainable": false, "dtype": "float32", "data_format": "channels_last", "keepdims": false}, "name": "block5-02_se_squeeze", "inbound_nodes": [[["block5-02_activation", 0, 0, {}]]]}, {"class_name": "Reshape", "config": {"name": "block5-02_se_reshape", "trainable": false, "dtype": "float32", "target_shape": [1, 1, 672]}, "name": "block5-02_se_reshape", "inbound_nodes": [[["block5-02_se_squeeze", 0, 0, {}]]]}, {"class_name": "Conv2D", "config": {"name": "block5-02_se_reduce", "trainable": false, "dtype": "float32", "filters": 28, "kernel_size": [1, 1], "strides": [1, 1], "padding": "same", "data_format": "channels_last", "dilation_rate": [1, 1], "groups": 1, "activation": "swish", "use_bias": true, "kernel_initializer": {"class_name": "VarianceScaling", "config": {"scale": 2.0, "mode": "fan_out", "distribution": "truncated_normal", "seed": null}}, "bias_initializer": {"class_name": "Zeros", "config": {}}, "kernel_regularizer": null, "bias_regularizer": null, "activity_regularizer": null, "kernel_constraint": null, "bias_constraint": null}, "name": "block5-02_se_reduce", "inbound_nodes": [[["block5-02_se_reshape", 0, 0, {}]]]}, {"class_name": "Conv2D", "config": {"name": "block5-02_se_expand", "trainable": false, "dtype": "float32", "filters": 672, "kernel_size": [1, 1], "strides": [1, 1], "padding": "same", "data_format": "channels_last", "dilation_rate": [1, 1], "groups": 1, "activation": "sigmoid", "use_bias": true, "kernel_initializer": {"class_name": "VarianceScaling", "config": {"scale": 2.0, "mode": "fan_out", "distribution": "truncated_normal", "seed": null}}, "bias_initializer": {"class_name": "Zeros", "config": {}}, "kernel_regularizer": null, "bias_regularizer": null, "activity_regularizer": null, "kernel_constraint": null, "bias_constraint": null}, "name": "block5-02_se_expand", "inbound_nodes": [[["block5-02_se_reduce", 0, 0, {}]]]}, {"class_name": "Multiply", "config": {"name": "block5-02_se_excite", "trainable": false, "dtype": "float32"}, "name": "block5-02_se_excite", "inbound_nodes": [[["block5-02_activation", 0, 0, {}], ["block5-02_se_expand", 0, 0, {}]]]}, {"class_name": "Conv2D", "config": {"name": "block5-02_project_conv", "trainable": false, "dtype": "float32", "filters": 112, "kernel_size": [1, 1], "strides": [1, 1], "padding": "same", "data_format": "channels_last", "dilation_rate": [1, 1], "groups": 1, "activation": "linear", "use_bias": false, "kernel_initializer": {"class_name": "VarianceScaling", "config": {"scale": 2.0, "mode": "fan_out", "distribution": "truncated_normal", "seed": null}}, "bias_initializer": {"class_name": "Zeros", "config": {}}, "kernel_regularizer": null, "bias_regularizer": null, "activity_regularizer": null, "kernel_constraint": null, "bias_constraint": null}, "name": "block5-02_project_conv", "inbound_nodes": [[["block5-02_se_excite", 0, 0, {}]]]}, {"class_name": "BatchNormalization", "config": {"name": "block5-02_project_bn", "trainable": false, "dtype": "float32", "axis": [3], "momentum": 0.9, "epsilon": 0.001, "center": true, "scale": true, "beta_initializer": {"class_name": "Zeros", "config": {}}, "gamma_initializer": {"class_name": "Ones", "config": {}}, "moving_mean_initializer": {"class_name": "Zeros", "config": {}}, "moving_variance_initializer": {"class_name": "Ones", "config": {}}, "beta_regularizer": null, "gamma_regularizer": null, "beta_constraint": null, "gamma_constraint": null}, "name": "block5-02_project_bn", "inbound_nodes": [[["block5-02_project_conv", 0, 0, {}]]]}, {"class_name": "Dropout", "config": {"name": "block5-02_drop", "trainable": false, "dtype": "float32", "rate": 0.08571428571428572, "noise_shape": [null, 1, 1, 1], "seed": null}, "name": "block5-02_drop", "inbound_nodes": [[["block5-02_project_bn", 0, 0, {}]]]}, {"class_name": "Add", "config": {"name": "block5-02_add", "trainable": false, "dtype": "float32"}, "name": "block5-02_add", "inbound_nodes": [[["block5-02_drop", 0, 0, {}], ["block5-01_project_bn", 0, 0, {}]]]}, {"class_name": "Conv2D", "config": {"name": "block5-03_expand_conv", "trainable": false, "dtype": "float32", "filters": 672, "kernel_size": [1, 1], "strides": [1, 1], "padding": "same", "data_format": "channels_last", "dilation_rate": [1, 1], "groups": 1, "activation": "linear", "use_bias": false, "kernel_initializer": {"class_name": "VarianceScaling", "config": {"scale": 2.0, "mode": "fan_out", "distribution": "truncated_normal", "seed": null}}, "bias_initializer": {"class_name": "Zeros", "config": {}}, "kernel_regularizer": null, "bias_regularizer": null, "activity_regularizer": null, "kernel_constraint": null, "bias_constraint": null}, "name": "block5-03_expand_conv", "inbound_nodes": [[["block5-02_add", 0, 0, {}]]]}, {"class_name": "BatchNormalization", "config": {"name": "block5-03_expand_bn", "trainable": false, "dtype": "float32", "axis": [3], "momentum": 0.9, "epsilon": 0.001, "center": true, "scale": true, "beta_initializer": {"class_name": "Zeros", "config": {}}, "gamma_initializer": {"class_name": "Ones", "config": {}}, "moving_mean_initializer": {"class_name": "Zeros", "config": {}}, "moving_variance_initializer": {"class_name": "Ones", "config": {}}, "beta_regularizer": null, "gamma_regularizer": null, "beta_constraint": null, "gamma_constraint": null}, "name": "block5-03_expand_bn", "inbound_nodes": [[["block5-03_expand_conv", 0, 0, {}]]]}, {"class_name": "Activation", "config": {"name": "block5-03_expand_activation", "trainable": false, "dtype": "float32", "activation": "swish"}, "name": "block5-03_expand_activation", "inbound_nodes": [[["block5-03_expand_bn", 0, 0, {}]]]}, {"class_name": "DepthwiseConv2D", "config": {"name": "block5-03_dwconv2", "trainable": false, "dtype": "float32", "kernel_size": [3, 3], "strides": [1, 1], "padding": "same", "data_format": "channels_last", "dilation_rate": [1, 1], "groups": 1, "activation": "linear", "use_bias": false, "bias_initializer": {"class_name": "Zeros", "config": {}}, "bias_regularizer": null, "activity_regularizer": null, "bias_constraint": null, "depth_multiplier": 1, "depthwise_initializer": {"class_name": "VarianceScaling", "config": {"scale": 2.0, "mode": "fan_out", "distribution": "truncated_normal", "seed": null}}, "depthwise_regularizer": null, "depthwise_constraint": null}, "name": "block5-03_dwconv2", "inbound_nodes": [[["block5-03_expand_activation", 0, 0, {}]]]}, {"class_name": "BatchNormalization", "config": {"name": "block5-03_bn", "trainable": false, "dtype": "float32", "axis": [3], "momentum": 0.9, "epsilon": 0.001, "center": true, "scale": true, "beta_initializer": {"class_name": "Zeros", "config": {}}, "gamma_initializer": {"class_name": "Ones", "config": {}}, "moving_mean_initializer": {"class_name": "Zeros", "config": {}}, "moving_variance_initializer": {"class_name": "Ones", "config": {}}, "beta_regularizer": null, "gamma_regularizer": null, "beta_constraint": null, "gamma_constraint": null}, "name": "block5-03_bn", "inbound_nodes": [[["block5-03_dwconv2", 0, 0, {}]]]}, {"class_name": "Activation", "config": {"name": "block5-03_activation", "trainable": false, "dtype": "float32", "activation": "swish"}, "name": "block5-03_activation", "inbound_nodes": [[["block5-03_bn", 0, 0, {}]]]}, {"class_name": "GlobalAveragePooling2D", "config": {"name": "block5-03_se_squeeze", "trainable": false, "dtype": "float32", "data_format": "channels_last", "keepdims": false}, "name": "block5-03_se_squeeze", "inbound_nodes": [[["block5-03_activation", 0, 0, {}]]]}, {"class_name": "Reshape", "config": {"name": "block5-03_se_reshape", "trainable": false, "dtype": "float32", "target_shape": [1, 1, 672]}, "name": "block5-03_se_reshape", "inbound_nodes": [[["block5-03_se_squeeze", 0, 0, {}]]]}, {"class_name": "Conv2D", "config": {"name": "block5-03_se_reduce", "trainable": false, "dtype": "float32", "filters": 28, "kernel_size": [1, 1], "strides": [1, 1], "padding": "same", "data_format": "channels_last", "dilation_rate": [1, 1], "groups": 1, "activation": "swish", "use_bias": true, "kernel_initializer": {"class_name": "VarianceScaling", "config": {"scale": 2.0, "mode": "fan_out", "distribution": "truncated_normal", "seed": null}}, "bias_initializer": {"class_name": "Zeros", "config": {}}, "kernel_regularizer": null, "bias_regularizer": null, "activity_regularizer": null, "kernel_constraint": null, "bias_constraint": null}, "name": "block5-03_se_reduce", "inbound_nodes": [[["block5-03_se_reshape", 0, 0, {}]]]}, {"class_name": "Conv2D", "config": {"name": "block5-03_se_expand", "trainable": false, "dtype": "float32", "filters": 672, "kernel_size": [1, 1], "strides": [1, 1], "padding": "same", "data_format": "channels_last", "dilation_rate": [1, 1], "groups": 1, "activation": "sigmoid", "use_bias": true, "kernel_initializer": {"class_name": "VarianceScaling", "config": {"scale": 2.0, "mode": "fan_out", "distribution": "truncated_normal", "seed": null}}, "bias_initializer": {"class_name": "Zeros", "config": {}}, "kernel_regularizer": null, "bias_regularizer": null, "activity_regularizer": null, "kernel_constraint": null, "bias_constraint": null}, "name": "block5-03_se_expand", "inbound_nodes": [[["block5-03_se_reduce", 0, 0, {}]]]}, {"class_name": "Multiply", "config": {"name": "block5-03_se_excite", "trainable": false, "dtype": "float32"}, "name": "block5-03_se_excite", "inbound_nodes": [[["block5-03_activation", 0, 0, {}], ["block5-03_se_expand", 0, 0, {}]]]}, {"class_name": "Conv2D", "config": {"name": "block5-03_project_conv", "trainable": false, "dtype": "float32", "filters": 112, "kernel_size": [1, 1], "strides": [1, 1], "padding": "same", "data_format": "channels_last", "dilation_rate": [1, 1], "groups": 1, "activation": "linear", "use_bias": false, "kernel_initializer": {"class_name": "VarianceScaling", "config": {"scale": 2.0, "mode": "fan_out", "distribution": "truncated_normal", "seed": null}}, "bias_initializer": {"class_name": "Zeros", "config": {}}, "kernel_regularizer": null, "bias_regularizer": null, "activity_regularizer": null, "kernel_constraint": null, "bias_constraint": null}, "name": "block5-03_project_conv", "inbound_nodes": [[["block5-03_se_excite", 0, 0, {}]]]}, {"class_name": "BatchNormalization", "config": {"name": "block5-03_project_bn", "trainable": false, "dtype": "float32", "axis": [3], "momentum": 0.9, "epsilon": 0.001, "center": true, "scale": true, "beta_initializer": {"class_name": "Zeros", "config": {}}, "gamma_initializer": {"class_name": "Ones", "config": {}}, "moving_mean_initializer": {"class_name": "Zeros", "config": {}}, "moving_variance_initializer": {"class_name": "Ones", "config": {}}, "beta_regularizer": null, "gamma_regularizer": null, "beta_constraint": null, "gamma_constraint": null}, "name": "block5-03_project_bn", "inbound_nodes": [[["block5-03_project_conv", 0, 0, {}]]]}, {"class_name": "Dropout", "config": {"name": "block5-03_drop", "trainable": false, "dtype": "float32", "rate": 0.09523809523809523, "noise_shape": [null, 1, 1, 1], "seed": null}, "name": "block5-03_drop", "inbound_nodes": [[["block5-03_project_bn", 0, 0, {}]]]}, {"class_name": "Add", "config": {"name": "block5-03_add", "trainable": false, "dtype": "float32"}, "name": "block5-03_add", "inbound_nodes": [[["block5-03_drop", 0, 0, {}], ["block5-02_add", 0, 0, {}]]]}, {"class_name": "Conv2D", "config": {"name": "block5-04_expand_conv", "trainable": false, "dtype": "float32", "filters": 672, "kernel_size": [1, 1], "strides": [1, 1], "padding": "same", "data_format": "channels_last", "dilation_rate": [1, 1], "groups": 1, "activation": "linear", "use_bias": false, "kernel_initializer": {"class_name": "VarianceScaling", "config": {"scale": 2.0, "mode": "fan_out", "distribution": "truncated_normal", "seed": null}}, "bias_initializer": {"class_name": "Zeros", "config": {}}, "kernel_regularizer": null, "bias_regularizer": null, "activity_regularizer": null, "kernel_constraint": null, "bias_constraint": null}, "name": "block5-04_expand_conv", "inbound_nodes": [[["block5-03_add", 0, 0, {}]]]}, {"class_name": "BatchNormalization", "config": {"name": "block5-04_expand_bn", "trainable": false, "dtype": "float32", "axis": [3], "momentum": 0.9, "epsilon": 0.001, "center": true, "scale": true, "beta_initializer": {"class_name": "Zeros", "config": {}}, "gamma_initializer": {"class_name": "Ones", "config": {}}, "moving_mean_initializer": {"class_name": "Zeros", "config": {}}, "moving_variance_initializer": {"class_name": "Ones", "config": {}}, "beta_regularizer": null, "gamma_regularizer": null, "beta_constraint": null, "gamma_constraint": null}, "name": "block5-04_expand_bn", "inbound_nodes": [[["block5-04_expand_conv", 0, 0, {}]]]}, {"class_name": "Activation", "config": {"name": "block5-04_expand_activation", "trainable": false, "dtype": "float32", "activation": "swish"}, "name": "block5-04_expand_activation", "inbound_nodes": [[["block5-04_expand_bn", 0, 0, {}]]]}, {"class_name": "DepthwiseConv2D", "config": {"name": "block5-04_dwconv2", "trainable": false, "dtype": "float32", "kernel_size": [3, 3], "strides": [1, 1], "padding": "same", "data_format": "channels_last", "dilation_rate": [1, 1], "groups": 1, "activation": "linear", "use_bias": false, "bias_initializer": {"class_name": "Zeros", "config": {}}, "bias_regularizer": null, "activity_regularizer": null, "bias_constraint": null, "depth_multiplier": 1, "depthwise_initializer": {"class_name": "VarianceScaling", "config": {"scale": 2.0, "mode": "fan_out", "distribution": "truncated_normal", "seed": null}}, "depthwise_regularizer": null, "depthwise_constraint": null}, "name": "block5-04_dwconv2", "inbound_nodes": [[["block5-04_expand_activation", 0, 0, {}]]]}, {"class_name": "BatchNormalization", "config": {"name": "block5-04_bn", "trainable": false, "dtype": "float32", "axis": [3], "momentum": 0.9, "epsilon": 0.001, "center": true, "scale": true, "beta_initializer": {"class_name": "Zeros", "config": {}}, "gamma_initializer": {"class_name": "Ones", "config": {}}, "moving_mean_initializer": {"class_name": "Zeros", "config": {}}, "moving_variance_initializer": {"class_name": "Ones", "config": {}}, "beta_regularizer": null, "gamma_regularizer": null, "beta_constraint": null, "gamma_constraint": null}, "name": "block5-04_bn", "inbound_nodes": [[["block5-04_dwconv2", 0, 0, {}]]]}, {"class_name": "Activation", "config": {"name": "block5-04_activation", "trainable": false, "dtype": "float32", "activation": "swish"}, "name": "block5-04_activation", "inbound_nodes": [[["block5-04_bn", 0, 0, {}]]]}, {"class_name": "GlobalAveragePooling2D", "config": {"name": "block5-04_se_squeeze", "trainable": false, "dtype": "float32", "data_format": "channels_last", "keepdims": false}, "name": "block5-04_se_squeeze", "inbound_nodes": [[["block5-04_activation", 0, 0, {}]]]}, {"class_name": "Reshape", "config": {"name": "block5-04_se_reshape", "trainable": false, "dtype": "float32", "target_shape": [1, 1, 672]}, "name": "block5-04_se_reshape", "inbound_nodes": [[["block5-04_se_squeeze", 0, 0, {}]]]}, {"class_name": "Conv2D", "config": {"name": "block5-04_se_reduce", "trainable": false, "dtype": "float32", "filters": 28, "kernel_size": [1, 1], "strides": [1, 1], "padding": "same", "data_format": "channels_last", "dilation_rate": [1, 1], "groups": 1, "activation": "swish", "use_bias": true, "kernel_initializer": {"class_name": "VarianceScaling", "config": {"scale": 2.0, "mode": "fan_out", "distribution": "truncated_normal", "seed": null}}, "bias_initializer": {"class_name": "Zeros", "config": {}}, "kernel_regularizer": null, "bias_regularizer": null, "activity_regularizer": null, "kernel_constraint": null, "bias_constraint": null}, "name": "block5-04_se_reduce", "inbound_nodes": [[["block5-04_se_reshape", 0, 0, {}]]]}, {"class_name": "Conv2D", "config": {"name": "block5-04_se_expand", "trainable": false, "dtype": "float32", "filters": 672, "kernel_size": [1, 1], "strides": [1, 1], "padding": "same", "data_format": "channels_last", "dilation_rate": [1, 1], "groups": 1, "activation": "sigmoid", "use_bias": true, "kernel_initializer": {"class_name": "VarianceScaling", "config": {"scale": 2.0, "mode": "fan_out", "distribution": "truncated_normal", "seed": null}}, "bias_initializer": {"class_name": "Zeros", "config": {}}, "kernel_regularizer": null, "bias_regularizer": null, "activity_regularizer": null, "kernel_constraint": null, "bias_constraint": null}, "name": "block5-04_se_expand", "inbound_nodes": [[["block5-04_se_reduce", 0, 0, {}]]]}, {"class_name": "Multiply", "config": {"name": "block5-04_se_excite", "trainable": false, "dtype": "float32"}, "name": "block5-04_se_excite", "inbound_nodes": [[["block5-04_activation", 0, 0, {}], ["block5-04_se_expand", 0, 0, {}]]]}, {"class_name": "Conv2D", "config": {"name": "block5-04_project_conv", "trainable": false, "dtype": "float32", "filters": 112, "kernel_size": [1, 1], "strides": [1, 1], "padding": "same", "data_format": "channels_last", "dilation_rate": [1, 1], "groups": 1, "activation": "linear", "use_bias": false, "kernel_initializer": {"class_name": "VarianceScaling", "config": {"scale": 2.0, "mode": "fan_out", "distribution": "truncated_normal", "seed": null}}, "bias_initializer": {"class_name": "Zeros", "config": {}}, "kernel_regularizer": null, "bias_regularizer": null, "activity_regularizer": null, "kernel_constraint": null, "bias_constraint": null}, "name": "block5-04_project_conv", "inbound_nodes": [[["block5-04_se_excite", 0, 0, {}]]]}, {"class_name": "BatchNormalization", "config": {"name": "block5-04_project_bn", "trainable": false, "dtype": "float32", "axis": [3], "momentum": 0.9, "epsilon": 0.001, "center": true, "scale": true, "beta_initializer": {"class_name": "Zeros", "config": {}}, "gamma_initializer": {"class_name": "Ones", "config": {}}, "moving_mean_initializer": {"class_name": "Zeros", "config": {}}, "moving_variance_initializer": {"class_name": "Ones", "config": {}}, "beta_regularizer": null, "gamma_regularizer": null, "beta_constraint": null, "gamma_constraint": null}, "name": "block5-04_project_bn", "inbound_nodes": [[["block5-04_project_conv", 0, 0, {}]]]}, {"class_name": "Dropout", "config": {"name": "block5-04_drop", "trainable": false, "dtype": "float32", "rate": 0.10476190476190476, "noise_shape": [null, 1, 1, 1], "seed": null}, "name": "block5-04_drop", "inbound_nodes": [[["block5-04_project_bn", 0, 0, {}]]]}, {"class_name": "Add", "config": {"name": "block5-04_add", "trainable": false, "dtype": "float32"}, "name": "block5-04_add", "inbound_nodes": [[["block5-04_drop", 0, 0, {}], ["block5-03_add", 0, 0, {}]]]}, {"class_name": "Conv2D", "config": {"name": "block5-05_expand_conv", "trainable": false, "dtype": "float32", "filters": 672, "kernel_size": [1, 1], "strides": [1, 1], "padding": "same", "data_format": "channels_last", "dilation_rate": [1, 1], "groups": 1, "activation": "linear", "use_bias": false, "kernel_initializer": {"class_name": "VarianceScaling", "config": {"scale": 2.0, "mode": "fan_out", "distribution": "truncated_normal", "seed": null}}, "bias_initializer": {"class_name": "Zeros", "config": {}}, "kernel_regularizer": null, "bias_regularizer": null, "activity_regularizer": null, "kernel_constraint": null, "bias_constraint": null}, "name": "block5-05_expand_conv", "inbound_nodes": [[["block5-04_add", 0, 0, {}]]]}, {"class_name": "BatchNormalization", "config": {"name": "block5-05_expand_bn", "trainable": false, "dtype": "float32", "axis": [3], "momentum": 0.9, "epsilon": 0.001, "center": true, "scale": true, "beta_initializer": {"class_name": "Zeros", "config": {}}, "gamma_initializer": {"class_name": "Ones", "config": {}}, "moving_mean_initializer": {"class_name": "Zeros", "config": {}}, "moving_variance_initializer": {"class_name": "Ones", "config": {}}, "beta_regularizer": null, "gamma_regularizer": null, "beta_constraint": null, "gamma_constraint": null}, "name": "block5-05_expand_bn", "inbound_nodes": [[["block5-05_expand_conv", 0, 0, {}]]]}, {"class_name": "Activation", "config": {"name": "block5-05_expand_activation", "trainable": false, "dtype": "float32", "activation": "swish"}, "name": "block5-05_expand_activation", "inbound_nodes": [[["block5-05_expand_bn", 0, 0, {}]]]}, {"class_name": "DepthwiseConv2D", "config": {"name": "block5-05_dwconv2", "trainable": false, "dtype": "float32", "kernel_size": [3, 3], "strides": [1, 1], "padding": "same", "data_format": "channels_last", "dilation_rate": [1, 1], "groups": 1, "activation": "linear", "use_bias": false, "bias_initializer": {"class_name": "Zeros", "config": {}}, "bias_regularizer": null, "activity_regularizer": null, "bias_constraint": null, "depth_multiplier": 1, "depthwise_initializer": {"class_name": "VarianceScaling", "config": {"scale": 2.0, "mode": "fan_out", "distribution": "truncated_normal", "seed": null}}, "depthwise_regularizer": null, "depthwise_constraint": null}, "name": "block5-05_dwconv2", "inbound_nodes": [[["block5-05_expand_activation", 0, 0, {}]]]}, {"class_name": "BatchNormalization", "config": {"name": "block5-05_bn", "trainable": false, "dtype": "float32", "axis": [3], "momentum": 0.9, "epsilon": 0.001, "center": true, "scale": true, "beta_initializer": {"class_name": "Zeros", "config": {}}, "gamma_initializer": {"class_name": "Ones", "config": {}}, "moving_mean_initializer": {"class_name": "Zeros", "config": {}}, "moving_variance_initializer": {"class_name": "Ones", "config": {}}, "beta_regularizer": null, "gamma_regularizer": null, "beta_constraint": null, "gamma_constraint": null}, "name": "block5-05_bn", "inbound_nodes": [[["block5-05_dwconv2", 0, 0, {}]]]}, {"class_name": "Activation", "config": {"name": "block5-05_activation", "trainable": false, "dtype": "float32", "activation": "swish"}, "name": "block5-05_activation", "inbound_nodes": [[["block5-05_bn", 0, 0, {}]]]}, {"class_name": "GlobalAveragePooling2D", "config": {"name": "block5-05_se_squeeze", "trainable": false, "dtype": "float32", "data_format": "channels_last", "keepdims": false}, "name": "block5-05_se_squeeze", "inbound_nodes": [[["block5-05_activation", 0, 0, {}]]]}, {"class_name": "Reshape", "config": {"name": "block5-05_se_reshape", "trainable": false, "dtype": "float32", "target_shape": [1, 1, 672]}, "name": "block5-05_se_reshape", "inbound_nodes": [[["block5-05_se_squeeze", 0, 0, {}]]]}, {"class_name": "Conv2D", "config": {"name": "block5-05_se_reduce", "trainable": false, "dtype": "float32", "filters": 28, "kernel_size": [1, 1], "strides": [1, 1], "padding": "same", "data_format": "channels_last", "dilation_rate": [1, 1], "groups": 1, "activation": "swish", "use_bias": true, "kernel_initializer": {"class_name": "VarianceScaling", "config": {"scale": 2.0, "mode": "fan_out", "distribution": "truncated_normal", "seed": null}}, "bias_initializer": {"class_name": "Zeros", "config": {}}, "kernel_regularizer": null, "bias_regularizer": null, "activity_regularizer": null, "kernel_constraint": null, "bias_constraint": null}, "name": "block5-05_se_reduce", "inbound_nodes": [[["block5-05_se_reshape", 0, 0, {}]]]}, {"class_name": "Conv2D", "config": {"name": "block5-05_se_expand", "trainable": false, "dtype": "float32", "filters": 672, "kernel_size": [1, 1], "strides": [1, 1], "padding": "same", "data_format": "channels_last", "dilation_rate": [1, 1], "groups": 1, "activation": "sigmoid", "use_bias": true, "kernel_initializer": {"class_name": "VarianceScaling", "config": {"scale": 2.0, "mode": "fan_out", "distribution": "truncated_normal", "seed": null}}, "bias_initializer": {"class_name": "Zeros", "config": {}}, "kernel_regularizer": null, "bias_regularizer": null, "activity_regularizer": null, "kernel_constraint": null, "bias_constraint": null}, "name": "block5-05_se_expand", "inbound_nodes": [[["block5-05_se_reduce", 0, 0, {}]]]}, {"class_name": "Multiply", "config": {"name": "block5-05_se_excite", "trainable": false, "dtype": "float32"}, "name": "block5-05_se_excite", "inbound_nodes": [[["block5-05_activation", 0, 0, {}], ["block5-05_se_expand", 0, 0, {}]]]}, {"class_name": "Conv2D", "config": {"name": "block5-05_project_conv", "trainable": false, "dtype": "float32", "filters": 112, "kernel_size": [1, 1], "strides": [1, 1], "padding": "same", "data_format": "channels_last", "dilation_rate": [1, 1], "groups": 1, "activation": "linear", "use_bias": false, "kernel_initializer": {"class_name": "VarianceScaling", "config": {"scale": 2.0, "mode": "fan_out", "distribution": "truncated_normal", "seed": null}}, "bias_initializer": {"class_name": "Zeros", "config": {}}, "kernel_regularizer": null, "bias_regularizer": null, "activity_regularizer": null, "kernel_constraint": null, "bias_constraint": null}, "name": "block5-05_project_conv", "inbound_nodes": [[["block5-05_se_excite", 0, 0, {}]]]}, {"class_name": "BatchNormalization", "config": {"name": "block5-05_project_bn", "trainable": false, "dtype": "float32", "axis": [3], "momentum": 0.9, "epsilon": 0.001, "center": true, "scale": true, "beta_initializer": {"class_name": "Zeros", "config": {}}, "gamma_initializer": {"class_name": "Ones", "config": {}}, "moving_mean_initializer": {"class_name": "Zeros", "config": {}}, "moving_variance_initializer": {"class_name": "Ones", "config": {}}, "beta_regularizer": null, "gamma_regularizer": null, "beta_constraint": null, "gamma_constraint": null}, "name": "block5-05_project_bn", "inbound_nodes": [[["block5-05_project_conv", 0, 0, {}]]]}, {"class_name": "Dropout", "config": {"name": "block5-05_drop", "trainable": false, "dtype": "float32", "rate": 0.1142857142857143, "noise_shape": [null, 1, 1, 1], "seed": null}, "name": "block5-05_drop", "inbound_nodes": [[["block5-05_project_bn", 0, 0, {}]]]}, {"class_name": "Add", "config": {"name": "block5-05_add", "trainable": false, "dtype": "float32"}, "name": "block5-05_add", "inbound_nodes": [[["block5-05_drop", 0, 0, {}], ["block5-04_add", 0, 0, {}]]]}, {"class_name": "Conv2D", "config": {"name": "block6-01_expand_conv", "trainable": false, "dtype": "float32", "filters": 672, "kernel_size": [1, 1], "strides": [1, 1], "padding": "same", "data_format": "channels_last", "dilation_rate": [1, 1], "groups": 1, "activation": "linear", "use_bias": false, "kernel_initializer": {"class_name": "VarianceScaling", "config": {"scale": 2.0, "mode": "fan_out", "distribution": "truncated_normal", "seed": null}}, "bias_initializer": {"class_name": "Zeros", "config": {}}, "kernel_regularizer": null, "bias_regularizer": null, "activity_regularizer": null, "kernel_constraint": null, "bias_constraint": null}, "name": "block6-01_expand_conv", "inbound_nodes": [[["block5-05_add", 0, 0, {}]]]}, {"class_name": "BatchNormalization", "config": {"name": "block6-01_expand_bn", "trainable": false, "dtype": "float32", "axis": [3], "momentum": 0.9, "epsilon": 0.001, "center": true, "scale": true, "beta_initializer": {"class_name": "Zeros", "config": {}}, "gamma_initializer": {"class_name": "Ones", "config": {}}, "moving_mean_initializer": {"class_name": "Zeros", "config": {}}, "moving_variance_initializer": {"class_name": "Ones", "config": {}}, "beta_regularizer": null, "gamma_regularizer": null, "beta_constraint": null, "gamma_constraint": null}, "name": "block6-01_expand_bn", "inbound_nodes": [[["block6-01_expand_conv", 0, 0, {}]]]}, {"class_name": "Activation", "config": {"name": "block6-01_expand_activation", "trainable": false, "dtype": "float32", "activation": "swish"}, "name": "block6-01_expand_activation", "inbound_nodes": [[["block6-01_expand_bn", 0, 0, {}]]]}, {"class_name": "DepthwiseConv2D", "config": {"name": "block6-01_dwconv2", "trainable": false, "dtype": "float32", "kernel_size": [3, 3], "strides": [2, 2], "padding": "same", "data_format": "channels_last", "dilation_rate": [1, 1], "groups": 1, "activation": "linear", "use_bias": false, "bias_initializer": {"class_name": "Zeros", "config": {}}, "bias_regularizer": null, "activity_regularizer": null, "bias_constraint": null, "depth_multiplier": 1, "depthwise_initializer": {"class_name": "VarianceScaling", "config": {"scale": 2.0, "mode": "fan_out", "distribution": "truncated_normal", "seed": null}}, "depthwise_regularizer": null, "depthwise_constraint": null}, "name": "block6-01_dwconv2", "inbound_nodes": [[["block6-01_expand_activation", 0, 0, {}]]]}, {"class_name": "BatchNormalization", "config": {"name": "block6-01_bn", "trainable": false, "dtype": "float32", "axis": [3], "momentum": 0.9, "epsilon": 0.001, "center": true, "scale": true, "beta_initializer": {"class_name": "Zeros", "config": {}}, "gamma_initializer": {"class_name": "Ones", "config": {}}, "moving_mean_initializer": {"class_name": "Zeros", "config": {}}, "moving_variance_initializer": {"class_name": "Ones", "config": {}}, "beta_regularizer": null, "gamma_regularizer": null, "beta_constraint": null, "gamma_constraint": null}, "name": "block6-01_bn", "inbound_nodes": [[["block6-01_dwconv2", 0, 0, {}]]]}, {"class_name": "Activation", "config": {"name": "block6-01_activation", "trainable": false, "dtype": "float32", "activation": "swish"}, "name": "block6-01_activation", "inbound_nodes": [[["block6-01_bn", 0, 0, {}]]]}, {"class_name": "GlobalAveragePooling2D", "config": {"name": "block6-01_se_squeeze", "trainable": false, "dtype": "float32", "data_format": "channels_last", "keepdims": false}, "name": "block6-01_se_squeeze", "inbound_nodes": [[["block6-01_activation", 0, 0, {}]]]}, {"class_name": "Reshape", "config": {"name": "block6-01_se_reshape", "trainable": false, "dtype": "float32", "target_shape": [1, 1, 672]}, "name": "block6-01_se_reshape", "inbound_nodes": [[["block6-01_se_squeeze", 0, 0, {}]]]}, {"class_name": "Conv2D", "config": {"name": "block6-01_se_reduce", "trainable": false, "dtype": "float32", "filters": 28, "kernel_size": [1, 1], "strides": [1, 1], "padding": "same", "data_format": "channels_last", "dilation_rate": [1, 1], "groups": 1, "activation": "swish", "use_bias": true, "kernel_initializer": {"class_name": "VarianceScaling", "config": {"scale": 2.0, "mode": "fan_out", "distribution": "truncated_normal", "seed": null}}, "bias_initializer": {"class_name": "Zeros", "config": {}}, "kernel_regularizer": null, "bias_regularizer": null, "activity_regularizer": null, "kernel_constraint": null, "bias_constraint": null}, "name": "block6-01_se_reduce", "inbound_nodes": [[["block6-01_se_reshape", 0, 0, {}]]]}, {"class_name": "Conv2D", "config": {"name": "block6-01_se_expand", "trainable": false, "dtype": "float32", "filters": 672, "kernel_size": [1, 1], "strides": [1, 1], "padding": "same", "data_format": "channels_last", "dilation_rate": [1, 1], "groups": 1, "activation": "sigmoid", "use_bias": true, "kernel_initializer": {"class_name": "VarianceScaling", "config": {"scale": 2.0, "mode": "fan_out", "distribution": "truncated_normal", "seed": null}}, "bias_initializer": {"class_name": "Zeros", "config": {}}, "kernel_regularizer": null, "bias_regularizer": null, "activity_regularizer": null, "kernel_constraint": null, "bias_constraint": null}, "name": "block6-01_se_expand", "inbound_nodes": [[["block6-01_se_reduce", 0, 0, {}]]]}, {"class_name": "Multiply", "config": {"name": "block6-01_se_excite", "trainable": false, "dtype": "float32"}, "name": "block6-01_se_excite", "inbound_nodes": [[["block6-01_activation", 0, 0, {}], ["block6-01_se_expand", 0, 0, {}]]]}, {"class_name": "Conv2D", "config": {"name": "block6-01_project_conv", "trainable": false, "dtype": "float32", "filters": 192, "kernel_size": [1, 1], "strides": [1, 1], "padding": "same", "data_format": "channels_last", "dilation_rate": [1, 1], "groups": 1, "activation": "linear", "use_bias": false, "kernel_initializer": {"class_name": "VarianceScaling", "config": {"scale": 2.0, "mode": "fan_out", "distribution": "truncated_normal", "seed": null}}, "bias_initializer": {"class_name": "Zeros", "config": {}}, "kernel_regularizer": null, "bias_regularizer": null, "activity_regularizer": null, "kernel_constraint": null, "bias_constraint": null}, "name": "block6-01_project_conv", "inbound_nodes": [[["block6-01_se_excite", 0, 0, {}]]]}, {"class_name": "BatchNormalization", "config": {"name": "block6-01_project_bn", "trainable": false, "dtype": "float32", "axis": [3], "momentum": 0.9, "epsilon": 0.001, "center": true, "scale": true, "beta_initializer": {"class_name": "Zeros", "config": {}}, "gamma_initializer": {"class_name": "Ones", "config": {}}, "moving_mean_initializer": {"class_name": "Zeros", "config": {}}, "moving_variance_initializer": {"class_name": "Ones", "config": {}}, "beta_regularizer": null, "gamma_regularizer": null, "beta_constraint": null, "gamma_constraint": null}, "name": "block6-01_project_bn", "inbound_nodes": [[["block6-01_project_conv", 0, 0, {}]]]}, {"class_name": "Conv2D", "config": {"name": "block6-02_expand_conv", "trainable": false, "dtype": "float32", "filters": 1152, "kernel_size": [1, 1], "strides": [1, 1], "padding": "same", "data_format": "channels_last", "dilation_rate": [1, 1], "groups": 1, "activation": "linear", "use_bias": false, "kernel_initializer": {"class_name": "VarianceScaling", "config": {"scale": 2.0, "mode": "fan_out", "distribution": "truncated_normal", "seed": null}}, "bias_initializer": {"class_name": "Zeros", "config": {}}, "kernel_regularizer": null, "bias_regularizer": null, "activity_regularizer": null, "kernel_constraint": null, "bias_constraint": null}, "name": "block6-02_expand_conv", "inbound_nodes": [[["block6-01_project_bn", 0, 0, {}]]]}, {"class_name": "BatchNormalization", "config": {"name": "block6-02_expand_bn", "trainable": false, "dtype": "float32", "axis": [3], "momentum": 0.9, "epsilon": 0.001, "center": true, "scale": true, "beta_initializer": {"class_name": "Zeros", "config": {}}, "gamma_initializer": {"class_name": "Ones", "config": {}}, "moving_mean_initializer": {"class_name": "Zeros", "config": {}}, "moving_variance_initializer": {"class_name": "Ones", "config": {}}, "beta_regularizer": null, "gamma_regularizer": null, "beta_constraint": null, "gamma_constraint": null}, "name": "block6-02_expand_bn", "inbound_nodes": [[["block6-02_expand_conv", 0, 0, {}]]]}, {"class_name": "Activation", "config": {"name": "block6-02_expand_activation", "trainable": false, "dtype": "float32", "activation": "swish"}, "name": "block6-02_expand_activation", "inbound_nodes": [[["block6-02_expand_bn", 0, 0, {}]]]}, {"class_name": "DepthwiseConv2D", "config": {"name": "block6-02_dwconv2", "trainable": false, "dtype": "float32", "kernel_size": [3, 3], "strides": [1, 1], "padding": "same", "data_format": "channels_last", "dilation_rate": [1, 1], "groups": 1, "activation": "linear", "use_bias": false, "bias_initializer": {"class_name": "Zeros", "config": {}}, "bias_regularizer": null, "activity_regularizer": null, "bias_constraint": null, "depth_multiplier": 1, "depthwise_initializer": {"class_name": "VarianceScaling", "config": {"scale": 2.0, "mode": "fan_out", "distribution": "truncated_normal", "seed": null}}, "depthwise_regularizer": null, "depthwise_constraint": null}, "name": "block6-02_dwconv2", "inbound_nodes": [[["block6-02_expand_activation", 0, 0, {}]]]}, {"class_name": "BatchNormalization", "config": {"name": "block6-02_bn", "trainable": false, "dtype": "float32", "axis": [3], "momentum": 0.9, "epsilon": 0.001, "center": true, "scale": true, "beta_initializer": {"class_name": "Zeros", "config": {}}, "gamma_initializer": {"class_name": "Ones", "config": {}}, "moving_mean_initializer": {"class_name": "Zeros", "config": {}}, "moving_variance_initializer": {"class_name": "Ones", "config": {}}, "beta_regularizer": null, "gamma_regularizer": null, "beta_constraint": null, "gamma_constraint": null}, "name": "block6-02_bn", "inbound_nodes": [[["block6-02_dwconv2", 0, 0, {}]]]}, {"class_name": "Activation", "config": {"name": "block6-02_activation", "trainable": false, "dtype": "float32", "activation": "swish"}, "name": "block6-02_activation", "inbound_nodes": [[["block6-02_bn", 0, 0, {}]]]}, {"class_name": "GlobalAveragePooling2D", "config": {"name": "block6-02_se_squeeze", "trainable": false, "dtype": "float32", "data_format": "channels_last", "keepdims": false}, "name": "block6-02_se_squeeze", "inbound_nodes": [[["block6-02_activation", 0, 0, {}]]]}, {"class_name": "Reshape", "config": {"name": "block6-02_se_reshape", "trainable": false, "dtype": "float32", "target_shape": [1, 1, 1152]}, "name": "block6-02_se_reshape", "inbound_nodes": [[["block6-02_se_squeeze", 0, 0, {}]]]}, {"class_name": "Conv2D", "config": {"name": "block6-02_se_reduce", "trainable": false, "dtype": "float32", "filters": 48, "kernel_size": [1, 1], "strides": [1, 1], "padding": "same", "data_format": "channels_last", "dilation_rate": [1, 1], "groups": 1, "activation": "swish", "use_bias": true, "kernel_initializer": {"class_name": "VarianceScaling", "config": {"scale": 2.0, "mode": "fan_out", "distribution": "truncated_normal", "seed": null}}, "bias_initializer": {"class_name": "Zeros", "config": {}}, "kernel_regularizer": null, "bias_regularizer": null, "activity_regularizer": null, "kernel_constraint": null, "bias_constraint": null}, "name": "block6-02_se_reduce", "inbound_nodes": [[["block6-02_se_reshape", 0, 0, {}]]]}, {"class_name": "Conv2D", "config": {"name": "block6-02_se_expand", "trainable": false, "dtype": "float32", "filters": 1152, "kernel_size": [1, 1], "strides": [1, 1], "padding": "same", "data_format": "channels_last", "dilation_rate": [1, 1], "groups": 1, "activation": "sigmoid", "use_bias": true, "kernel_initializer": {"class_name": "VarianceScaling", "config": {"scale": 2.0, "mode": "fan_out", "distribution": "truncated_normal", "seed": null}}, "bias_initializer": {"class_name": "Zeros", "config": {}}, "kernel_regularizer": null, "bias_regularizer": null, "activity_regularizer": null, "kernel_constraint": null, "bias_constraint": null}, "name": "block6-02_se_expand", "inbound_nodes": [[["block6-02_se_reduce", 0, 0, {}]]]}, {"class_name": "Multiply", "config": {"name": "block6-02_se_excite", "trainable": false, "dtype": "float32"}, "name": "block6-02_se_excite", "inbound_nodes": [[["block6-02_activation", 0, 0, {}], ["block6-02_se_expand", 0, 0, {}]]]}, {"class_name": "Conv2D", "config": {"name": "block6-02_project_conv", "trainable": false, "dtype": "float32", "filters": 192, "kernel_size": [1, 1], "strides": [1, 1], "padding": "same", "data_format": "channels_last", "dilation_rate": [1, 1], "groups": 1, "activation": "linear", "use_bias": false, "kernel_initializer": {"class_name": "VarianceScaling", "config": {"scale": 2.0, "mode": "fan_out", "distribution": "truncated_normal", "seed": null}}, "bias_initializer": {"class_name": "Zeros", "config": {}}, "kernel_regularizer": null, "bias_regularizer": null, "activity_regularizer": null, "kernel_constraint": null, "bias_constraint": null}, "name": "block6-02_project_conv", "inbound_nodes": [[["block6-02_se_excite", 0, 0, {}]]]}, {"class_name": "BatchNormalization", "config": {"name": "block6-02_project_bn", "trainable": false, "dtype": "float32", "axis": [3], "momentum": 0.9, "epsilon": 0.001, "center": true, "scale": true, "beta_initializer": {"class_name": "Zeros", "config": {}}, "gamma_initializer": {"class_name": "Ones", "config": {}}, "moving_mean_initializer": {"class_name": "Zeros", "config": {}}, "moving_variance_initializer": {"class_name": "Ones", "config": {}}, "beta_regularizer": null, "gamma_regularizer": null, "beta_constraint": null, "gamma_constraint": null}, "name": "block6-02_project_bn", "inbound_nodes": [[["block6-02_project_conv", 0, 0, {}]]]}, {"class_name": "Dropout", "config": {"name": "block6-02_drop", "trainable": false, "dtype": "float32", "rate": 0.13333333333333336, "noise_shape": [null, 1, 1, 1], "seed": null}, "name": "block6-02_drop", "inbound_nodes": [[["block6-02_project_bn", 0, 0, {}]]]}, {"class_name": "Add", "config": {"name": "block6-02_add", "trainable": false, "dtype": "float32"}, "name": "block6-02_add", "inbound_nodes": [[["block6-02_drop", 0, 0, {}], ["block6-01_project_bn", 0, 0, {}]]]}, {"class_name": "Conv2D", "config": {"name": "block6-03_expand_conv", "trainable": false, "dtype": "float32", "filters": 1152, "kernel_size": [1, 1], "strides": [1, 1], "padding": "same", "data_format": "channels_last", "dilation_rate": [1, 1], "groups": 1, "activation": "linear", "use_bias": false, "kernel_initializer": {"class_name": "VarianceScaling", "config": {"scale": 2.0, "mode": "fan_out", "distribution": "truncated_normal", "seed": null}}, "bias_initializer": {"class_name": "Zeros", "config": {}}, "kernel_regularizer": null, "bias_regularizer": null, "activity_regularizer": null, "kernel_constraint": null, "bias_constraint": null}, "name": "block6-03_expand_conv", "inbound_nodes": [[["block6-02_add", 0, 0, {}]]]}, {"class_name": "BatchNormalization", "config": {"name": "block6-03_expand_bn", "trainable": false, "dtype": "float32", "axis": [3], "momentum": 0.9, "epsilon": 0.001, "center": true, "scale": true, "beta_initializer": {"class_name": "Zeros", "config": {}}, "gamma_initializer": {"class_name": "Ones", "config": {}}, "moving_mean_initializer": {"class_name": "Zeros", "config": {}}, "moving_variance_initializer": {"class_name": "Ones", "config": {}}, "beta_regularizer": null, "gamma_regularizer": null, "beta_constraint": null, "gamma_constraint": null}, "name": "block6-03_expand_bn", "inbound_nodes": [[["block6-03_expand_conv", 0, 0, {}]]]}, {"class_name": "Activation", "config": {"name": "block6-03_expand_activation", "trainable": false, "dtype": "float32", "activation": "swish"}, "name": "block6-03_expand_activation", "inbound_nodes": [[["block6-03_expand_bn", 0, 0, {}]]]}, {"class_name": "DepthwiseConv2D", "config": {"name": "block6-03_dwconv2", "trainable": false, "dtype": "float32", "kernel_size": [3, 3], "strides": [1, 1], "padding": "same", "data_format": "channels_last", "dilation_rate": [1, 1], "groups": 1, "activation": "linear", "use_bias": false, "bias_initializer": {"class_name": "Zeros", "config": {}}, "bias_regularizer": null, "activity_regularizer": null, "bias_constraint": null, "depth_multiplier": 1, "depthwise_initializer": {"class_name": "VarianceScaling", "config": {"scale": 2.0, "mode": "fan_out", "distribution": "truncated_normal", "seed": null}}, "depthwise_regularizer": null, "depthwise_constraint": null}, "name": "block6-03_dwconv2", "inbound_nodes": [[["block6-03_expand_activation", 0, 0, {}]]]}, {"class_name": "BatchNormalization", "config": {"name": "block6-03_bn", "trainable": false, "dtype": "float32", "axis": [3], "momentum": 0.9, "epsilon": 0.001, "center": true, "scale": true, "beta_initializer": {"class_name": "Zeros", "config": {}}, "gamma_initializer": {"class_name": "Ones", "config": {}}, "moving_mean_initializer": {"class_name": "Zeros", "config": {}}, "moving_variance_initializer": {"class_name": "Ones", "config": {}}, "beta_regularizer": null, "gamma_regularizer": null, "beta_constraint": null, "gamma_constraint": null}, "name": "block6-03_bn", "inbound_nodes": [[["block6-03_dwconv2", 0, 0, {}]]]}, {"class_name": "Activation", "config": {"name": "block6-03_activation", "trainable": false, "dtype": "float32", "activation": "swish"}, "name": "block6-03_activation", "inbound_nodes": [[["block6-03_bn", 0, 0, {}]]]}, {"class_name": "GlobalAveragePooling2D", "config": {"name": "block6-03_se_squeeze", "trainable": false, "dtype": "float32", "data_format": "channels_last", "keepdims": false}, "name": "block6-03_se_squeeze", "inbound_nodes": [[["block6-03_activation", 0, 0, {}]]]}, {"class_name": "Reshape", "config": {"name": "block6-03_se_reshape", "trainable": false, "dtype": "float32", "target_shape": [1, 1, 1152]}, "name": "block6-03_se_reshape", "inbound_nodes": [[["block6-03_se_squeeze", 0, 0, {}]]]}, {"class_name": "Conv2D", "config": {"name": "block6-03_se_reduce", "trainable": false, "dtype": "float32", "filters": 48, "kernel_size": [1, 1], "strides": [1, 1], "padding": "same", "data_format": "channels_last", "dilation_rate": [1, 1], "groups": 1, "activation": "swish", "use_bias": true, "kernel_initializer": {"class_name": "VarianceScaling", "config": {"scale": 2.0, "mode": "fan_out", "distribution": "truncated_normal", "seed": null}}, "bias_initializer": {"class_name": "Zeros", "config": {}}, "kernel_regularizer": null, "bias_regularizer": null, "activity_regularizer": null, "kernel_constraint": null, "bias_constraint": null}, "name": "block6-03_se_reduce", "inbound_nodes": [[["block6-03_se_reshape", 0, 0, {}]]]}, {"class_name": "Conv2D", "config": {"name": "block6-03_se_expand", "trainable": false, "dtype": "float32", "filters": 1152, "kernel_size": [1, 1], "strides": [1, 1], "padding": "same", "data_format": "channels_last", "dilation_rate": [1, 1], "groups": 1, "activation": "sigmoid", "use_bias": true, "kernel_initializer": {"class_name": "VarianceScaling", "config": {"scale": 2.0, "mode": "fan_out", "distribution": "truncated_normal", "seed": null}}, "bias_initializer": {"class_name": "Zeros", "config": {}}, "kernel_regularizer": null, "bias_regularizer": null, "activity_regularizer": null, "kernel_constraint": null, "bias_constraint": null}, "name": "block6-03_se_expand", "inbound_nodes": [[["block6-03_se_reduce", 0, 0, {}]]]}, {"class_name": "Multiply", "config": {"name": "block6-03_se_excite", "trainable": false, "dtype": "float32"}, "name": "block6-03_se_excite", "inbound_nodes": [[["block6-03_activation", 0, 0, {}], ["block6-03_se_expand", 0, 0, {}]]]}, {"class_name": "Conv2D", "config": {"name": "block6-03_project_conv", "trainable": false, "dtype": "float32", "filters": 192, "kernel_size": [1, 1], "strides": [1, 1], "padding": "same", "data_format": "channels_last", "dilation_rate": [1, 1], "groups": 1, "activation": "linear", "use_bias": false, "kernel_initializer": {"class_name": "VarianceScaling", "config": {"scale": 2.0, "mode": "fan_out", "distribution": "truncated_normal", "seed": null}}, "bias_initializer": {"class_name": "Zeros", "config": {}}, "kernel_regularizer": null, "bias_regularizer": null, "activity_regularizer": null, "kernel_constraint": null, "bias_constraint": null}, "name": "block6-03_project_conv", "inbound_nodes": [[["block6-03_se_excite", 0, 0, {}]]]}, {"class_name": "BatchNormalization", "config": {"name": "block6-03_project_bn", "trainable": false, "dtype": "float32", "axis": [3], "momentum": 0.9, "epsilon": 0.001, "center": true, "scale": true, "beta_initializer": {"class_name": "Zeros", "config": {}}, "gamma_initializer": {"class_name": "Ones", "config": {}}, "moving_mean_initializer": {"class_name": "Zeros", "config": {}}, "moving_variance_initializer": {"class_name": "Ones", "config": {}}, "beta_regularizer": null, "gamma_regularizer": null, "beta_constraint": null, "gamma_constraint": null}, "name": "block6-03_project_bn", "inbound_nodes": [[["block6-03_project_conv", 0, 0, {}]]]}, {"class_name": "Dropout", "config": {"name": "block6-03_drop", "trainable": false, "dtype": "float32", "rate": 0.14285714285714285, "noise_shape": [null, 1, 1, 1], "seed": null}, "name": "block6-03_drop", "inbound_nodes": [[["block6-03_project_bn", 0, 0, {}]]]}, {"class_name": "Add", "config": {"name": "block6-03_add", "trainable": false, "dtype": "float32"}, "name": "block6-03_add", "inbound_nodes": [[["block6-03_drop", 0, 0, {}], ["block6-02_add", 0, 0, {}]]]}, {"class_name": "Conv2D", "config": {"name": "block6-04_expand_conv", "trainable": false, "dtype": "float32", "filters": 1152, "kernel_size": [1, 1], "strides": [1, 1], "padding": "same", "data_format": "channels_last", "dilation_rate": [1, 1], "groups": 1, "activation": "linear", "use_bias": false, "kernel_initializer": {"class_name": "VarianceScaling", "config": {"scale": 2.0, "mode": "fan_out", "distribution": "truncated_normal", "seed": null}}, "bias_initializer": {"class_name": "Zeros", "config": {}}, "kernel_regularizer": null, "bias_regularizer": null, "activity_regularizer": null, "kernel_constraint": null, "bias_constraint": null}, "name": "block6-04_expand_conv", "inbound_nodes": [[["block6-03_add", 0, 0, {}]]]}, {"class_name": "BatchNormalization", "config": {"name": "block6-04_expand_bn", "trainable": false, "dtype": "float32", "axis": [3], "momentum": 0.9, "epsilon": 0.001, "center": true, "scale": true, "beta_initializer": {"class_name": "Zeros", "config": {}}, "gamma_initializer": {"class_name": "Ones", "config": {}}, "moving_mean_initializer": {"class_name": "Zeros", "config": {}}, "moving_variance_initializer": {"class_name": "Ones", "config": {}}, "beta_regularizer": null, "gamma_regularizer": null, "beta_constraint": null, "gamma_constraint": null}, "name": "block6-04_expand_bn", "inbound_nodes": [[["block6-04_expand_conv", 0, 0, {}]]]}, {"class_name": "Activation", "config": {"name": "block6-04_expand_activation", "trainable": false, "dtype": "float32", "activation": "swish"}, "name": "block6-04_expand_activation", "inbound_nodes": [[["block6-04_expand_bn", 0, 0, {}]]]}, {"class_name": "DepthwiseConv2D", "config": {"name": "block6-04_dwconv2", "trainable": false, "dtype": "float32", "kernel_size": [3, 3], "strides": [1, 1], "padding": "same", "data_format": "channels_last", "dilation_rate": [1, 1], "groups": 1, "activation": "linear", "use_bias": false, "bias_initializer": {"class_name": "Zeros", "config": {}}, "bias_regularizer": null, "activity_regularizer": null, "bias_constraint": null, "depth_multiplier": 1, "depthwise_initializer": {"class_name": "VarianceScaling", "config": {"scale": 2.0, "mode": "fan_out", "distribution": "truncated_normal", "seed": null}}, "depthwise_regularizer": null, "depthwise_constraint": null}, "name": "block6-04_dwconv2", "inbound_nodes": [[["block6-04_expand_activation", 0, 0, {}]]]}, {"class_name": "BatchNormalization", "config": {"name": "block6-04_bn", "trainable": false, "dtype": "float32", "axis": [3], "momentum": 0.9, "epsilon": 0.001, "center": true, "scale": true, "beta_initializer": {"class_name": "Zeros", "config": {}}, "gamma_initializer": {"class_name": "Ones", "config": {}}, "moving_mean_initializer": {"class_name": "Zeros", "config": {}}, "moving_variance_initializer": {"class_name": "Ones", "config": {}}, "beta_regularizer": null, "gamma_regularizer": null, "beta_constraint": null, "gamma_constraint": null}, "name": "block6-04_bn", "inbound_nodes": [[["block6-04_dwconv2", 0, 0, {}]]]}, {"class_name": "Activation", "config": {"name": "block6-04_activation", "trainable": false, "dtype": "float32", "activation": "swish"}, "name": "block6-04_activation", "inbound_nodes": [[["block6-04_bn", 0, 0, {}]]]}, {"class_name": "GlobalAveragePooling2D", "config": {"name": "block6-04_se_squeeze", "trainable": false, "dtype": "float32", "data_format": "channels_last", "keepdims": false}, "name": "block6-04_se_squeeze", "inbound_nodes": [[["block6-04_activation", 0, 0, {}]]]}, {"class_name": "Reshape", "config": {"name": "block6-04_se_reshape", "trainable": false, "dtype": "float32", "target_shape": [1, 1, 1152]}, "name": "block6-04_se_reshape", "inbound_nodes": [[["block6-04_se_squeeze", 0, 0, {}]]]}, {"class_name": "Conv2D", "config": {"name": "block6-04_se_reduce", "trainable": false, "dtype": "float32", "filters": 48, "kernel_size": [1, 1], "strides": [1, 1], "padding": "same", "data_format": "channels_last", "dilation_rate": [1, 1], "groups": 1, "activation": "swish", "use_bias": true, "kernel_initializer": {"class_name": "VarianceScaling", "config": {"scale": 2.0, "mode": "fan_out", "distribution": "truncated_normal", "seed": null}}, "bias_initializer": {"class_name": "Zeros", "config": {}}, "kernel_regularizer": null, "bias_regularizer": null, "activity_regularizer": null, "kernel_constraint": null, "bias_constraint": null}, "name": "block6-04_se_reduce", "inbound_nodes": [[["block6-04_se_reshape", 0, 0, {}]]]}, {"class_name": "Conv2D", "config": {"name": "block6-04_se_expand", "trainable": false, "dtype": "float32", "filters": 1152, "kernel_size": [1, 1], "strides": [1, 1], "padding": "same", "data_format": "channels_last", "dilation_rate": [1, 1], "groups": 1, "activation": "sigmoid", "use_bias": true, "kernel_initializer": {"class_name": "VarianceScaling", "config": {"scale": 2.0, "mode": "fan_out", "distribution": "truncated_normal", "seed": null}}, "bias_initializer": {"class_name": "Zeros", "config": {}}, "kernel_regularizer": null, "bias_regularizer": null, "activity_regularizer": null, "kernel_constraint": null, "bias_constraint": null}, "name": "block6-04_se_expand", "inbound_nodes": [[["block6-04_se_reduce", 0, 0, {}]]]}, {"class_name": "Multiply", "config": {"name": "block6-04_se_excite", "trainable": false, "dtype": "float32"}, "name": "block6-04_se_excite", "inbound_nodes": [[["block6-04_activation", 0, 0, {}], ["block6-04_se_expand", 0, 0, {}]]]}, {"class_name": "Conv2D", "config": {"name": "block6-04_project_conv", "trainable": false, "dtype": "float32", "filters": 192, "kernel_size": [1, 1], "strides": [1, 1], "padding": "same", "data_format": "channels_last", "dilation_rate": [1, 1], "groups": 1, "activation": "linear", "use_bias": false, "kernel_initializer": {"class_name": "VarianceScaling", "config": {"scale": 2.0, "mode": "fan_out", "distribution": "truncated_normal", "seed": null}}, "bias_initializer": {"class_name": "Zeros", "config": {}}, "kernel_regularizer": null, "bias_regularizer": null, "activity_regularizer": null, "kernel_constraint": null, "bias_constraint": null}, "name": "block6-04_project_conv", "inbound_nodes": [[["block6-04_se_excite", 0, 0, {}]]]}, {"class_name": "BatchNormalization", "config": {"name": "block6-04_project_bn", "trainable": false, "dtype": "float32", "axis": [3], "momentum": 0.9, "epsilon": 0.001, "center": true, "scale": true, "beta_initializer": {"class_name": "Zeros", "config": {}}, "gamma_initializer": {"class_name": "Ones", "config": {}}, "moving_mean_initializer": {"class_name": "Zeros", "config": {}}, "moving_variance_initializer": {"class_name": "Ones", "config": {}}, "beta_regularizer": null, "gamma_regularizer": null, "beta_constraint": null, "gamma_constraint": null}, "name": "block6-04_project_bn", "inbound_nodes": [[["block6-04_project_conv", 0, 0, {}]]]}, {"class_name": "Dropout", "config": {"name": "block6-04_drop", "trainable": false, "dtype": "float32", "rate": 0.1523809523809524, "noise_shape": [null, 1, 1, 1], "seed": null}, "name": "block6-04_drop", "inbound_nodes": [[["block6-04_project_bn", 0, 0, {}]]]}, {"class_name": "Add", "config": {"name": "block6-04_add", "trainable": false, "dtype": "float32"}, "name": "block6-04_add", "inbound_nodes": [[["block6-04_drop", 0, 0, {}], ["block6-03_add", 0, 0, {}]]]}, {"class_name": "Conv2D", "config": {"name": "block6-05_expand_conv", "trainable": false, "dtype": "float32", "filters": 1152, "kernel_size": [1, 1], "strides": [1, 1], "padding": "same", "data_format": "channels_last", "dilation_rate": [1, 1], "groups": 1, "activation": "linear", "use_bias": false, "kernel_initializer": {"class_name": "VarianceScaling", "config": {"scale": 2.0, "mode": "fan_out", "distribution": "truncated_normal", "seed": null}}, "bias_initializer": {"class_name": "Zeros", "config": {}}, "kernel_regularizer": null, "bias_regularizer": null, "activity_regularizer": null, "kernel_constraint": null, "bias_constraint": null}, "name": "block6-05_expand_conv", "inbound_nodes": [[["block6-04_add", 0, 0, {}]]]}, {"class_name": "BatchNormalization", "config": {"name": "block6-05_expand_bn", "trainable": false, "dtype": "float32", "axis": [3], "momentum": 0.9, "epsilon": 0.001, "center": true, "scale": true, "beta_initializer": {"class_name": "Zeros", "config": {}}, "gamma_initializer": {"class_name": "Ones", "config": {}}, "moving_mean_initializer": {"class_name": "Zeros", "config": {}}, "moving_variance_initializer": {"class_name": "Ones", "config": {}}, "beta_regularizer": null, "gamma_regularizer": null, "beta_constraint": null, "gamma_constraint": null}, "name": "block6-05_expand_bn", "inbound_nodes": [[["block6-05_expand_conv", 0, 0, {}]]]}, {"class_name": "Activation", "config": {"name": "block6-05_expand_activation", "trainable": false, "dtype": "float32", "activation": "swish"}, "name": "block6-05_expand_activation", "inbound_nodes": [[["block6-05_expand_bn", 0, 0, {}]]]}, {"class_name": "DepthwiseConv2D", "config": {"name": "block6-05_dwconv2", "trainable": false, "dtype": "float32", "kernel_size": [3, 3], "strides": [1, 1], "padding": "same", "data_format": "channels_last", "dilation_rate": [1, 1], "groups": 1, "activation": "linear", "use_bias": false, "bias_initializer": {"class_name": "Zeros", "config": {}}, "bias_regularizer": null, "activity_regularizer": null, "bias_constraint": null, "depth_multiplier": 1, "depthwise_initializer": {"class_name": "VarianceScaling", "config": {"scale": 2.0, "mode": "fan_out", "distribution": "truncated_normal", "seed": null}}, "depthwise_regularizer": null, "depthwise_constraint": null}, "name": "block6-05_dwconv2", "inbound_nodes": [[["block6-05_expand_activation", 0, 0, {}]]]}, {"class_name": "BatchNormalization", "config": {"name": "block6-05_bn", "trainable": false, "dtype": "float32", "axis": [3], "momentum": 0.9, "epsilon": 0.001, "center": true, "scale": true, "beta_initializer": {"class_name": "Zeros", "config": {}}, "gamma_initializer": {"class_name": "Ones", "config": {}}, "moving_mean_initializer": {"class_name": "Zeros", "config": {}}, "moving_variance_initializer": {"class_name": "Ones", "config": {}}, "beta_regularizer": null, "gamma_regularizer": null, "beta_constraint": null, "gamma_constraint": null}, "name": "block6-05_bn", "inbound_nodes": [[["block6-05_dwconv2", 0, 0, {}]]]}, {"class_name": "Activation", "config": {"name": "block6-05_activation", "trainable": false, "dtype": "float32", "activation": "swish"}, "name": "block6-05_activation", "inbound_nodes": [[["block6-05_bn", 0, 0, {}]]]}, {"class_name": "GlobalAveragePooling2D", "config": {"name": "block6-05_se_squeeze", "trainable": false, "dtype": "float32", "data_format": "channels_last", "keepdims": false}, "name": "block6-05_se_squeeze", "inbound_nodes": [[["block6-05_activation", 0, 0, {}]]]}, {"class_name": "Reshape", "config": {"name": "block6-05_se_reshape", "trainable": false, "dtype": "float32", "target_shape": [1, 1, 1152]}, "name": "block6-05_se_reshape", "inbound_nodes": [[["block6-05_se_squeeze", 0, 0, {}]]]}, {"class_name": "Conv2D", "config": {"name": "block6-05_se_reduce", "trainable": false, "dtype": "float32", "filters": 48, "kernel_size": [1, 1], "strides": [1, 1], "padding": "same", "data_format": "channels_last", "dilation_rate": [1, 1], "groups": 1, "activation": "swish", "use_bias": true, "kernel_initializer": {"class_name": "VarianceScaling", "config": {"scale": 2.0, "mode": "fan_out", "distribution": "truncated_normal", "seed": null}}, "bias_initializer": {"class_name": "Zeros", "config": {}}, "kernel_regularizer": null, "bias_regularizer": null, "activity_regularizer": null, "kernel_constraint": null, "bias_constraint": null}, "name": "block6-05_se_reduce", "inbound_nodes": [[["block6-05_se_reshape", 0, 0, {}]]]}, {"class_name": "Conv2D", "config": {"name": "block6-05_se_expand", "trainable": false, "dtype": "float32", "filters": 1152, "kernel_size": [1, 1], "strides": [1, 1], "padding": "same", "data_format": "channels_last", "dilation_rate": [1, 1], "groups": 1, "activation": "sigmoid", "use_bias": true, "kernel_initializer": {"class_name": "VarianceScaling", "config": {"scale": 2.0, "mode": "fan_out", "distribution": "truncated_normal", "seed": null}}, "bias_initializer": {"class_name": "Zeros", "config": {}}, "kernel_regularizer": null, "bias_regularizer": null, "activity_regularizer": null, "kernel_constraint": null, "bias_constraint": null}, "name": "block6-05_se_expand", "inbound_nodes": [[["block6-05_se_reduce", 0, 0, {}]]]}, {"class_name": "Multiply", "config": {"name": "block6-05_se_excite", "trainable": false, "dtype": "float32"}, "name": "block6-05_se_excite", "inbound_nodes": [[["block6-05_activation", 0, 0, {}], ["block6-05_se_expand", 0, 0, {}]]]}, {"class_name": "Conv2D", "config": {"name": "block6-05_project_conv", "trainable": false, "dtype": "float32", "filters": 192, "kernel_size": [1, 1], "strides": [1, 1], "padding": "same", "data_format": "channels_last", "dilation_rate": [1, 1], "groups": 1, "activation": "linear", "use_bias": false, "kernel_initializer": {"class_name": "VarianceScaling", "config": {"scale": 2.0, "mode": "fan_out", "distribution": "truncated_normal", "seed": null}}, "bias_initializer": {"class_name": "Zeros", "config": {}}, "kernel_regularizer": null, "bias_regularizer": null, "activity_regularizer": null, "kernel_constraint": null, "bias_constraint": null}, "name": "block6-05_project_conv", "inbound_nodes": [[["block6-05_se_excite", 0, 0, {}]]]}, {"class_name": "BatchNormalization", "config": {"name": "block6-05_project_bn", "trainable": false, "dtype": "float32", "axis": [3], "momentum": 0.9, "epsilon": 0.001, "center": true, "scale": true, "beta_initializer": {"class_name": "Zeros", "config": {}}, "gamma_initializer": {"class_name": "Ones", "config": {}}, "moving_mean_initializer": {"class_name": "Zeros", "config": {}}, "moving_variance_initializer": {"class_name": "Ones", "config": {}}, "beta_regularizer": null, "gamma_regularizer": null, "beta_constraint": null, "gamma_constraint": null}, "name": "block6-05_project_bn", "inbound_nodes": [[["block6-05_project_conv", 0, 0, {}]]]}, {"class_name": "Dropout", "config": {"name": "block6-05_drop", "trainable": false, "dtype": "float32", "rate": 0.1619047619047619, "noise_shape": [null, 1, 1, 1], "seed": null}, "name": "block6-05_drop", "inbound_nodes": [[["block6-05_project_bn", 0, 0, {}]]]}, {"class_name": "Add", "config": {"name": "block6-05_add", "trainable": false, "dtype": "float32"}, "name": "block6-05_add", "inbound_nodes": [[["block6-05_drop", 0, 0, {}], ["block6-04_add", 0, 0, {}]]]}, {"class_name": "Conv2D", "config": {"name": "block6-06_expand_conv", "trainable": false, "dtype": "float32", "filters": 1152, "kernel_size": [1, 1], "strides": [1, 1], "padding": "same", "data_format": "channels_last", "dilation_rate": [1, 1], "groups": 1, "activation": "linear", "use_bias": false, "kernel_initializer": {"class_name": "VarianceScaling", "config": {"scale": 2.0, "mode": "fan_out", "distribution": "truncated_normal", "seed": null}}, "bias_initializer": {"class_name": "Zeros", "config": {}}, "kernel_regularizer": null, "bias_regularizer": null, "activity_regularizer": null, "kernel_constraint": null, "bias_constraint": null}, "name": "block6-06_expand_conv", "inbound_nodes": [[["block6-05_add", 0, 0, {}]]]}, {"class_name": "BatchNormalization", "config": {"name": "block6-06_expand_bn", "trainable": false, "dtype": "float32", "axis": [3], "momentum": 0.9, "epsilon": 0.001, "center": true, "scale": true, "beta_initializer": {"class_name": "Zeros", "config": {}}, "gamma_initializer": {"class_name": "Ones", "config": {}}, "moving_mean_initializer": {"class_name": "Zeros", "config": {}}, "moving_variance_initializer": {"class_name": "Ones", "config": {}}, "beta_regularizer": null, "gamma_regularizer": null, "beta_constraint": null, "gamma_constraint": null}, "name": "block6-06_expand_bn", "inbound_nodes": [[["block6-06_expand_conv", 0, 0, {}]]]}, {"class_name": "Activation", "config": {"name": "block6-06_expand_activation", "trainable": false, "dtype": "float32", "activation": "swish"}, "name": "block6-06_expand_activation", "inbound_nodes": [[["block6-06_expand_bn", 0, 0, {}]]]}, {"class_name": "DepthwiseConv2D", "config": {"name": "block6-06_dwconv2", "trainable": false, "dtype": "float32", "kernel_size": [3, 3], "strides": [1, 1], "padding": "same", "data_format": "channels_last", "dilation_rate": [1, 1], "groups": 1, "activation": "linear", "use_bias": false, "bias_initializer": {"class_name": "Zeros", "config": {}}, "bias_regularizer": null, "activity_regularizer": null, "bias_constraint": null, "depth_multiplier": 1, "depthwise_initializer": {"class_name": "VarianceScaling", "config": {"scale": 2.0, "mode": "fan_out", "distribution": "truncated_normal", "seed": null}}, "depthwise_regularizer": null, "depthwise_constraint": null}, "name": "block6-06_dwconv2", "inbound_nodes": [[["block6-06_expand_activation", 0, 0, {}]]]}, {"class_name": "BatchNormalization", "config": {"name": "block6-06_bn", "trainable": false, "dtype": "float32", "axis": [3], "momentum": 0.9, "epsilon": 0.001, "center": true, "scale": true, "beta_initializer": {"class_name": "Zeros", "config": {}}, "gamma_initializer": {"class_name": "Ones", "config": {}}, "moving_mean_initializer": {"class_name": "Zeros", "config": {}}, "moving_variance_initializer": {"class_name": "Ones", "config": {}}, "beta_regularizer": null, "gamma_regularizer": null, "beta_constraint": null, "gamma_constraint": null}, "name": "block6-06_bn", "inbound_nodes": [[["block6-06_dwconv2", 0, 0, {}]]]}, {"class_name": "Activation", "config": {"name": "block6-06_activation", "trainable": false, "dtype": "float32", "activation": "swish"}, "name": "block6-06_activation", "inbound_nodes": [[["block6-06_bn", 0, 0, {}]]]}, {"class_name": "GlobalAveragePooling2D", "config": {"name": "block6-06_se_squeeze", "trainable": false, "dtype": "float32", "data_format": "channels_last", "keepdims": false}, "name": "block6-06_se_squeeze", "inbound_nodes": [[["block6-06_activation", 0, 0, {}]]]}, {"class_name": "Reshape", "config": {"name": "block6-06_se_reshape", "trainable": false, "dtype": "float32", "target_shape": [1, 1, 1152]}, "name": "block6-06_se_reshape", "inbound_nodes": [[["block6-06_se_squeeze", 0, 0, {}]]]}, {"class_name": "Conv2D", "config": {"name": "block6-06_se_reduce", "trainable": false, "dtype": "float32", "filters": 48, "kernel_size": [1, 1], "strides": [1, 1], "padding": "same", "data_format": "channels_last", "dilation_rate": [1, 1], "groups": 1, "activation": "swish", "use_bias": true, "kernel_initializer": {"class_name": "VarianceScaling", "config": {"scale": 2.0, "mode": "fan_out", "distribution": "truncated_normal", "seed": null}}, "bias_initializer": {"class_name": "Zeros", "config": {}}, "kernel_regularizer": null, "bias_regularizer": null, "activity_regularizer": null, "kernel_constraint": null, "bias_constraint": null}, "name": "block6-06_se_reduce", "inbound_nodes": [[["block6-06_se_reshape", 0, 0, {}]]]}, {"class_name": "Conv2D", "config": {"name": "block6-06_se_expand", "trainable": false, "dtype": "float32", "filters": 1152, "kernel_size": [1, 1], "strides": [1, 1], "padding": "same", "data_format": "channels_last", "dilation_rate": [1, 1], "groups": 1, "activation": "sigmoid", "use_bias": true, "kernel_initializer": {"class_name": "VarianceScaling", "config": {"scale": 2.0, "mode": "fan_out", "distribution": "truncated_normal", "seed": null}}, "bias_initializer": {"class_name": "Zeros", "config": {}}, "kernel_regularizer": null, "bias_regularizer": null, "activity_regularizer": null, "kernel_constraint": null, "bias_constraint": null}, "name": "block6-06_se_expand", "inbound_nodes": [[["block6-06_se_reduce", 0, 0, {}]]]}, {"class_name": "Multiply", "config": {"name": "block6-06_se_excite", "trainable": false, "dtype": "float32"}, "name": "block6-06_se_excite", "inbound_nodes": [[["block6-06_activation", 0, 0, {}], ["block6-06_se_expand", 0, 0, {}]]]}, {"class_name": "Conv2D", "config": {"name": "block6-06_project_conv", "trainable": false, "dtype": "float32", "filters": 192, "kernel_size": [1, 1], "strides": [1, 1], "padding": "same", "data_format": "channels_last", "dilation_rate": [1, 1], "groups": 1, "activation": "linear", "use_bias": false, "kernel_initializer": {"class_name": "VarianceScaling", "config": {"scale": 2.0, "mode": "fan_out", "distribution": "truncated_normal", "seed": null}}, "bias_initializer": {"class_name": "Zeros", "config": {}}, "kernel_regularizer": null, "bias_regularizer": null, "activity_regularizer": null, "kernel_constraint": null, "bias_constraint": null}, "name": "block6-06_project_conv", "inbound_nodes": [[["block6-06_se_excite", 0, 0, {}]]]}, {"class_name": "BatchNormalization", "config": {"name": "block6-06_project_bn", "trainable": false, "dtype": "float32", "axis": [3], "momentum": 0.9, "epsilon": 0.001, "center": true, "scale": true, "beta_initializer": {"class_name": "Zeros", "config": {}}, "gamma_initializer": {"class_name": "Ones", "config": {}}, "moving_mean_initializer": {"class_name": "Zeros", "config": {}}, "moving_variance_initializer": {"class_name": "Ones", "config": {}}, "beta_regularizer": null, "gamma_regularizer": null, "beta_constraint": null, "gamma_constraint": null}, "name": "block6-06_project_bn", "inbound_nodes": [[["block6-06_project_conv", 0, 0, {}]]]}, {"class_name": "Dropout", "config": {"name": "block6-06_drop", "trainable": false, "dtype": "float32", "rate": 0.17142857142857143, "noise_shape": [null, 1, 1, 1], "seed": null}, "name": "block6-06_drop", "inbound_nodes": [[["block6-06_project_bn", 0, 0, {}]]]}, {"class_name": "Add", "config": {"name": "block6-06_add", "trainable": false, "dtype": "float32"}, "name": "block6-06_add", "inbound_nodes": [[["block6-06_drop", 0, 0, {}], ["block6-05_add", 0, 0, {}]]]}, {"class_name": "Conv2D", "config": {"name": "block6-07_expand_conv", "trainable": false, "dtype": "float32", "filters": 1152, "kernel_size": [1, 1], "strides": [1, 1], "padding": "same", "data_format": "channels_last", "dilation_rate": [1, 1], "groups": 1, "activation": "linear", "use_bias": false, "kernel_initializer": {"class_name": "VarianceScaling", "config": {"scale": 2.0, "mode": "fan_out", "distribution": "truncated_normal", "seed": null}}, "bias_initializer": {"class_name": "Zeros", "config": {}}, "kernel_regularizer": null, "bias_regularizer": null, "activity_regularizer": null, "kernel_constraint": null, "bias_constraint": null}, "name": "block6-07_expand_conv", "inbound_nodes": [[["block6-06_add", 0, 0, {}]]]}, {"class_name": "BatchNormalization", "config": {"name": "block6-07_expand_bn", "trainable": false, "dtype": "float32", "axis": [3], "momentum": 0.9, "epsilon": 0.001, "center": true, "scale": true, "beta_initializer": {"class_name": "Zeros", "config": {}}, "gamma_initializer": {"class_name": "Ones", "config": {}}, "moving_mean_initializer": {"class_name": "Zeros", "config": {}}, "moving_variance_initializer": {"class_name": "Ones", "config": {}}, "beta_regularizer": null, "gamma_regularizer": null, "beta_constraint": null, "gamma_constraint": null}, "name": "block6-07_expand_bn", "inbound_nodes": [[["block6-07_expand_conv", 0, 0, {}]]]}, {"class_name": "Activation", "config": {"name": "block6-07_expand_activation", "trainable": false, "dtype": "float32", "activation": "swish"}, "name": "block6-07_expand_activation", "inbound_nodes": [[["block6-07_expand_bn", 0, 0, {}]]]}, {"class_name": "DepthwiseConv2D", "config": {"name": "block6-07_dwconv2", "trainable": false, "dtype": "float32", "kernel_size": [3, 3], "strides": [1, 1], "padding": "same", "data_format": "channels_last", "dilation_rate": [1, 1], "groups": 1, "activation": "linear", "use_bias": false, "bias_initializer": {"class_name": "Zeros", "config": {}}, "bias_regularizer": null, "activity_regularizer": null, "bias_constraint": null, "depth_multiplier": 1, "depthwise_initializer": {"class_name": "VarianceScaling", "config": {"scale": 2.0, "mode": "fan_out", "distribution": "truncated_normal", "seed": null}}, "depthwise_regularizer": null, "depthwise_constraint": null}, "name": "block6-07_dwconv2", "inbound_nodes": [[["block6-07_expand_activation", 0, 0, {}]]]}, {"class_name": "BatchNormalization", "config": {"name": "block6-07_bn", "trainable": false, "dtype": "float32", "axis": [3], "momentum": 0.9, "epsilon": 0.001, "center": true, "scale": true, "beta_initializer": {"class_name": "Zeros", "config": {}}, "gamma_initializer": {"class_name": "Ones", "config": {}}, "moving_mean_initializer": {"class_name": "Zeros", "config": {}}, "moving_variance_initializer": {"class_name": "Ones", "config": {}}, "beta_regularizer": null, "gamma_regularizer": null, "beta_constraint": null, "gamma_constraint": null}, "name": "block6-07_bn", "inbound_nodes": [[["block6-07_dwconv2", 0, 0, {}]]]}, {"class_name": "Activation", "config": {"name": "block6-07_activation", "trainable": false, "dtype": "float32", "activation": "swish"}, "name": "block6-07_activation", "inbound_nodes": [[["block6-07_bn", 0, 0, {}]]]}, {"class_name": "GlobalAveragePooling2D", "config": {"name": "block6-07_se_squeeze", "trainable": false, "dtype": "float32", "data_format": "channels_last", "keepdims": false}, "name": "block6-07_se_squeeze", "inbound_nodes": [[["block6-07_activation", 0, 0, {}]]]}, {"class_name": "Reshape", "config": {"name": "block6-07_se_reshape", "trainable": false, "dtype": "float32", "target_shape": [1, 1, 1152]}, "name": "block6-07_se_reshape", "inbound_nodes": [[["block6-07_se_squeeze", 0, 0, {}]]]}, {"class_name": "Conv2D", "config": {"name": "block6-07_se_reduce", "trainable": false, "dtype": "float32", "filters": 48, "kernel_size": [1, 1], "strides": [1, 1], "padding": "same", "data_format": "channels_last", "dilation_rate": [1, 1], "groups": 1, "activation": "swish", "use_bias": true, "kernel_initializer": {"class_name": "VarianceScaling", "config": {"scale": 2.0, "mode": "fan_out", "distribution": "truncated_normal", "seed": null}}, "bias_initializer": {"class_name": "Zeros", "config": {}}, "kernel_regularizer": null, "bias_regularizer": null, "activity_regularizer": null, "kernel_constraint": null, "bias_constraint": null}, "name": "block6-07_se_reduce", "inbound_nodes": [[["block6-07_se_reshape", 0, 0, {}]]]}, {"class_name": "Conv2D", "config": {"name": "block6-07_se_expand", "trainable": false, "dtype": "float32", "filters": 1152, "kernel_size": [1, 1], "strides": [1, 1], "padding": "same", "data_format": "channels_last", "dilation_rate": [1, 1], "groups": 1, "activation": "sigmoid", "use_bias": true, "kernel_initializer": {"class_name": "VarianceScaling", "config": {"scale": 2.0, "mode": "fan_out", "distribution": "truncated_normal", "seed": null}}, "bias_initializer": {"class_name": "Zeros", "config": {}}, "kernel_regularizer": null, "bias_regularizer": null, "activity_regularizer": null, "kernel_constraint": null, "bias_constraint": null}, "name": "block6-07_se_expand", "inbound_nodes": [[["block6-07_se_reduce", 0, 0, {}]]]}, {"class_name": "Multiply", "config": {"name": "block6-07_se_excite", "trainable": false, "dtype": "float32"}, "name": "block6-07_se_excite", "inbound_nodes": [[["block6-07_activation", 0, 0, {}], ["block6-07_se_expand", 0, 0, {}]]]}, {"class_name": "Conv2D", "config": {"name": "block6-07_project_conv", "trainable": false, "dtype": "float32", "filters": 192, "kernel_size": [1, 1], "strides": [1, 1], "padding": "same", "data_format": "channels_last", "dilation_rate": [1, 1], "groups": 1, "activation": "linear", "use_bias": false, "kernel_initializer": {"class_name": "VarianceScaling", "config": {"scale": 2.0, "mode": "fan_out", "distribution": "truncated_normal", "seed": null}}, "bias_initializer": {"class_name": "Zeros", "config": {}}, "kernel_regularizer": null, "bias_regularizer": null, "activity_regularizer": null, "kernel_constraint": null, "bias_constraint": null}, "name": "block6-07_project_conv", "inbound_nodes": [[["block6-07_se_excite", 0, 0, {}]]]}, {"class_name": "BatchNormalization", "config": {"name": "block6-07_project_bn", "trainable": false, "dtype": "float32", "axis": [3], "momentum": 0.9, "epsilon": 0.001, "center": true, "scale": true, "beta_initializer": {"class_name": "Zeros", "config": {}}, "gamma_initializer": {"class_name": "Ones", "config": {}}, "moving_mean_initializer": {"class_name": "Zeros", "config": {}}, "moving_variance_initializer": {"class_name": "Ones", "config": {}}, "beta_regularizer": null, "gamma_regularizer": null, "beta_constraint": null, "gamma_constraint": null}, "name": "block6-07_project_bn", "inbound_nodes": [[["block6-07_project_conv", 0, 0, {}]]]}, {"class_name": "Dropout", "config": {"name": "block6-07_drop", "trainable": false, "dtype": "float32", "rate": 0.18095238095238098, "noise_shape": [null, 1, 1, 1], "seed": null}, "name": "block6-07_drop", "inbound_nodes": [[["block6-07_project_bn", 0, 0, {}]]]}, {"class_name": "Add", "config": {"name": "block6-07_add", "trainable": false, "dtype": "float32"}, "name": "block6-07_add", "inbound_nodes": [[["block6-07_drop", 0, 0, {}], ["block6-06_add", 0, 0, {}]]]}, {"class_name": "Conv2D", "config": {"name": "block6-08_expand_conv", "trainable": false, "dtype": "float32", "filters": 1152, "kernel_size": [1, 1], "strides": [1, 1], "padding": "same", "data_format": "channels_last", "dilation_rate": [1, 1], "groups": 1, "activation": "linear", "use_bias": false, "kernel_initializer": {"class_name": "VarianceScaling", "config": {"scale": 2.0, "mode": "fan_out", "distribution": "truncated_normal", "seed": null}}, "bias_initializer": {"class_name": "Zeros", "config": {}}, "kernel_regularizer": null, "bias_regularizer": null, "activity_regularizer": null, "kernel_constraint": null, "bias_constraint": null}, "name": "block6-08_expand_conv", "inbound_nodes": [[["block6-07_add", 0, 0, {}]]]}, {"class_name": "BatchNormalization", "config": {"name": "block6-08_expand_bn", "trainable": false, "dtype": "float32", "axis": [3], "momentum": 0.9, "epsilon": 0.001, "center": true, "scale": true, "beta_initializer": {"class_name": "Zeros", "config": {}}, "gamma_initializer": {"class_name": "Ones", "config": {}}, "moving_mean_initializer": {"class_name": "Zeros", "config": {}}, "moving_variance_initializer": {"class_name": "Ones", "config": {}}, "beta_regularizer": null, "gamma_regularizer": null, "beta_constraint": null, "gamma_constraint": null}, "name": "block6-08_expand_bn", "inbound_nodes": [[["block6-08_expand_conv", 0, 0, {}]]]}, {"class_name": "Activation", "config": {"name": "block6-08_expand_activation", "trainable": false, "dtype": "float32", "activation": "swish"}, "name": "block6-08_expand_activation", "inbound_nodes": [[["block6-08_expand_bn", 0, 0, {}]]]}, {"class_name": "DepthwiseConv2D", "config": {"name": "block6-08_dwconv2", "trainable": false, "dtype": "float32", "kernel_size": [3, 3], "strides": [1, 1], "padding": "same", "data_format": "channels_last", "dilation_rate": [1, 1], "groups": 1, "activation": "linear", "use_bias": false, "bias_initializer": {"class_name": "Zeros", "config": {}}, "bias_regularizer": null, "activity_regularizer": null, "bias_constraint": null, "depth_multiplier": 1, "depthwise_initializer": {"class_name": "VarianceScaling", "config": {"scale": 2.0, "mode": "fan_out", "distribution": "truncated_normal", "seed": null}}, "depthwise_regularizer": null, "depthwise_constraint": null}, "name": "block6-08_dwconv2", "inbound_nodes": [[["block6-08_expand_activation", 0, 0, {}]]]}, {"class_name": "BatchNormalization", "config": {"name": "block6-08_bn", "trainable": false, "dtype": "float32", "axis": [3], "momentum": 0.9, "epsilon": 0.001, "center": true, "scale": true, "beta_initializer": {"class_name": "Zeros", "config": {}}, "gamma_initializer": {"class_name": "Ones", "config": {}}, "moving_mean_initializer": {"class_name": "Zeros", "config": {}}, "moving_variance_initializer": {"class_name": "Ones", "config": {}}, "beta_regularizer": null, "gamma_regularizer": null, "beta_constraint": null, "gamma_constraint": null}, "name": "block6-08_bn", "inbound_nodes": [[["block6-08_dwconv2", 0, 0, {}]]]}, {"class_name": "Activation", "config": {"name": "block6-08_activation", "trainable": false, "dtype": "float32", "activation": "swish"}, "name": "block6-08_activation", "inbound_nodes": [[["block6-08_bn", 0, 0, {}]]]}, {"class_name": "GlobalAveragePooling2D", "config": {"name": "block6-08_se_squeeze", "trainable": false, "dtype": "float32", "data_format": "channels_last", "keepdims": false}, "name": "block6-08_se_squeeze", "inbound_nodes": [[["block6-08_activation", 0, 0, {}]]]}, {"class_name": "Reshape", "config": {"name": "block6-08_se_reshape", "trainable": false, "dtype": "float32", "target_shape": [1, 1, 1152]}, "name": "block6-08_se_reshape", "inbound_nodes": [[["block6-08_se_squeeze", 0, 0, {}]]]}, {"class_name": "Conv2D", "config": {"name": "block6-08_se_reduce", "trainable": false, "dtype": "float32", "filters": 48, "kernel_size": [1, 1], "strides": [1, 1], "padding": "same", "data_format": "channels_last", "dilation_rate": [1, 1], "groups": 1, "activation": "swish", "use_bias": true, "kernel_initializer": {"class_name": "VarianceScaling", "config": {"scale": 2.0, "mode": "fan_out", "distribution": "truncated_normal", "seed": null}}, "bias_initializer": {"class_name": "Zeros", "config": {}}, "kernel_regularizer": null, "bias_regularizer": null, "activity_regularizer": null, "kernel_constraint": null, "bias_constraint": null}, "name": "block6-08_se_reduce", "inbound_nodes": [[["block6-08_se_reshape", 0, 0, {}]]]}, {"class_name": "Conv2D", "config": {"name": "block6-08_se_expand", "trainable": false, "dtype": "float32", "filters": 1152, "kernel_size": [1, 1], "strides": [1, 1], "padding": "same", "data_format": "channels_last", "dilation_rate": [1, 1], "groups": 1, "activation": "sigmoid", "use_bias": true, "kernel_initializer": {"class_name": "VarianceScaling", "config": {"scale": 2.0, "mode": "fan_out", "distribution": "truncated_normal", "seed": null}}, "bias_initializer": {"class_name": "Zeros", "config": {}}, "kernel_regularizer": null, "bias_regularizer": null, "activity_regularizer": null, "kernel_constraint": null, "bias_constraint": null}, "name": "block6-08_se_expand", "inbound_nodes": [[["block6-08_se_reduce", 0, 0, {}]]]}, {"class_name": "Multiply", "config": {"name": "block6-08_se_excite", "trainable": false, "dtype": "float32"}, "name": "block6-08_se_excite", "inbound_nodes": [[["block6-08_activation", 0, 0, {}], ["block6-08_se_expand", 0, 0, {}]]]}, {"class_name": "Conv2D", "config": {"name": "block6-08_project_conv", "trainable": false, "dtype": "float32", "filters": 192, "kernel_size": [1, 1], "strides": [1, 1], "padding": "same", "data_format": "channels_last", "dilation_rate": [1, 1], "groups": 1, "activation": "linear", "use_bias": false, "kernel_initializer": {"class_name": "VarianceScaling", "config": {"scale": 2.0, "mode": "fan_out", "distribution": "truncated_normal", "seed": null}}, "bias_initializer": {"class_name": "Zeros", "config": {}}, "kernel_regularizer": null, "bias_regularizer": null, "activity_regularizer": null, "kernel_constraint": null, "bias_constraint": null}, "name": "block6-08_project_conv", "inbound_nodes": [[["block6-08_se_excite", 0, 0, {}]]]}, {"class_name": "BatchNormalization", "config": {"name": "block6-08_project_bn", "trainable": false, "dtype": "float32", "axis": [3], "momentum": 0.9, "epsilon": 0.001, "center": true, "scale": true, "beta_initializer": {"class_name": "Zeros", "config": {}}, "gamma_initializer": {"class_name": "Ones", "config": {}}, "moving_mean_initializer": {"class_name": "Zeros", "config": {}}, "moving_variance_initializer": {"class_name": "Ones", "config": {}}, "beta_regularizer": null, "gamma_regularizer": null, "beta_constraint": null, "gamma_constraint": null}, "name": "block6-08_project_bn", "inbound_nodes": [[["block6-08_project_conv", 0, 0, {}]]]}, {"class_name": "Dropout", "config": {"name": "block6-08_drop", "trainable": false, "dtype": "float32", "rate": 0.19047619047619047, "noise_shape": [null, 1, 1, 1], "seed": null}, "name": "block6-08_drop", "inbound_nodes": [[["block6-08_project_bn", 0, 0, {}]]]}, {"class_name": "Add", "config": {"name": "block6-08_add", "trainable": false, "dtype": "float32"}, "name": "block6-08_add", "inbound_nodes": [[["block6-08_drop", 0, 0, {}], ["block6-07_add", 0, 0, {}]]]}, {"class_name": "Conv2D", "config": {"name": "top_conv", "trainable": false, "dtype": "float32", "filters": 1280, "kernel_size": [1, 1], "strides": [1, 1], "padding": "same", "data_format": "channels_last", "dilation_rate": [1, 1], "groups": 1, "activation": "linear", "use_bias": false, "kernel_initializer": {"class_name": "VarianceScaling", "config": {"scale": 2.0, "mode": "fan_out", "distribution": "truncated_normal", "seed": null}}, "bias_initializer": {"class_name": "Zeros", "config": {}}, "kernel_regularizer": null, "bias_regularizer": null, "activity_regularizer": null, "kernel_constraint": null, "bias_constraint": null}, "name": "top_conv", "inbound_nodes": [[["block6-08_add", 0, 0, {}]]]}, {"class_name": "BatchNormalization", "config": {"name": "top_bn", "trainable": false, "dtype": "float32", "axis": [3], "momentum": 0.9, "epsilon": 0.001, "center": true, "scale": true, "beta_initializer": {"class_name": "Zeros", "config": {}}, "gamma_initializer": {"class_name": "Ones", "config": {}}, "moving_mean_initializer": {"class_name": "Zeros", "config": {}}, "moving_variance_initializer": {"class_name": "Ones", "config": {}}, "beta_regularizer": null, "gamma_regularizer": null, "beta_constraint": null, "gamma_constraint": null}, "name": "top_bn", "inbound_nodes": [[["top_conv", 0, 0, {}]]]}, {"class_name": "Activation", "config": {"name": "top_activation", "trainable": false, "dtype": "float32", "activation": "swish"}, "name": "top_activation", "inbound_nodes": [[["top_bn", 0, 0, {}]]]}, {"class_name": "GlobalAveragePooling2D", "config": {"name": "avg_pool", "trainable": false, "dtype": "float32", "data_format": "channels_last", "keepdims": false}, "name": "avg_pool", "inbound_nodes": [[["top_activation", 0, 0, {}]]]}], "input_layers": [["input_1", 0, 0]], "output_layers": [["avg_pool", 0, 0]]}}, {"class_name": "Dense", "config": {"name": "dense", "trainable": true, "dtype": "float32", "units": 350, "activation": "relu", "use_bias": true, "kernel_initializer": {"class_name": "GlorotUniform", "config": {"seed": null}}, "bias_initializer": {"class_name": "Zeros", "config": {}}, "kernel_regularizer": null, "bias_regularizer": null, "activity_regularizer": null, "kernel_constraint": null, "bias_constraint": null}}, {"class_name": "Dropout", "config": {"name": "dropout", "trainable": true, "dtype": "float32", "rate": 0.262882219302666, "noise_shape": null, "seed": null}}, {"class_name": "Dense", "config": {"name": "dense_1", "trainable": true, "dtype": "float32", "units": 60, "activation": "softmax", "use_bias": true, "kernel_initializer": {"class_name": "GlorotUniform", "config": {"seed": null}}, "bias_initializer": {"class_name": "Zeros", "config": {}}, "kernel_regularizer": null, "bias_regularizer": null, "activity_regularizer": null, "kernel_constraint": null, "bias_constraint": null}}]}}, "training_config": {"loss": "binary_crossentropy", "metrics": [[{"class_name": "MeanMetricWrapper", "config": {"name": "accuracy", "dtype": "float32", "fn": "categorical_accuracy"}}]], "weighted_metrics": null, "loss_weights": null, "optimizer_config": {"class_name": "Custom>Adam", "config": {"name": "Adam", "weight_decay": null, "clipnorm": null, "global_clipnorm": null, "clipvalue": null, "use_ema": false, "ema_momentum": 0.99, "ema_overwrite_frequency": null, "jit_compile": false, "is_legacy_optimizer": false, "learning_rate": 0.001988055417314172, "beta_1": 0.9, "beta_2": 0.999, "epsilon": 1e-07, "amsgrad": false}}}}, "weightsManifest": [{"paths": ["group1-shard1of7.bin", "group1-shard2of7.bin", "group1-shard3of7.bin", "group1-shard4of7.bin", "group1-shard5of7.bin", "group1-shard6of7.bin", "group1-shard7of7.bin"], "weights": [{"name": "dense/kernel", "shape": [1280, 350], "dtype": "float32"}, {"name": "dense/bias", "shape": [350], "dtype": "float32"}, {"name": "dense_1/kernel", "shape": [350, 60], "dtype": "float32"}, {"name": "dense_1/bias", "shape": [60], "dtype": "float32"}, {"name": "stem_conv/kernel", "shape": [3, 3, 3, 32], "dtype": "float32"}, {"name": "stem_bn/gamma", "shape": [32], "dtype": "float32"}, {"name": "stem_bn/beta", "shape": [32], "dtype": "float32"}, {"name": "stem_bn/moving_mean", "shape": [32], "dtype": "float32"}, {"name": "stem_bn/moving_variance", "shape": [32], "dtype": "float32"}, {"name": "block1-01_project_conv/kernel", "shape": [3, 3, 32, 16], "dtype": "float32"}, {"name": "block1-01_project_bn/gamma", "shape": [16], "dtype": "float32"}, {"name": "block1-01_project_bn/beta", "shape": [16], "dtype": "float32"}, {"name": "block1-01_project_bn/moving_mean", "shape": [16], "dtype": "float32"}, {"name": "block1-01_project_bn/moving_variance", "shape": [16], "dtype": "float32"}, {"name": "block2-01_expand_conv/kernel", "shape": [3, 3, 16, 64], "dtype": "float32"}, {"name": "block2-01_expand_bn/gamma", "shape": [64], "dtype": "float32"}, {"name": "block2-01_expand_bn/beta", "shape": [64], "dtype": "float32"}, {"name": "block2-01_expand_bn/moving_mean", "shape": [64], "dtype": "float32"}, {"name": "block2-01_expand_bn/moving_variance", "shape": [64], "dtype": "float32"}, {"name": "block2-01_project_conv/kernel", "shape": [1, 1, 64, 32], "dtype": "float32"}, {"name": "block2-01_project_bn/gamma", "shape": [32], "dtype": "float32"}, {"name": "block2-01_project_bn/beta", "shape": [32], "dtype": "float32"}, {"name": "block2-01_project_bn/moving_mean", "shape": [32], "dtype": "float32"}, {"name": "block2-01_project_bn/moving_variance", "shape": [32], "dtype": "float32"}, {"name": "block2-02_expand_conv/kernel", "shape": [3, 3, 32, 128], "dtype": "float32"}, {"name": "block2-02_expand_bn/gamma", "shape": [128], "dtype": "float32"}, {"name": "block2-02_expand_bn/beta", "shape": [128], "dtype": "float32"}, {"name": "block2-02_expand_bn/moving_mean", "shape": [128], "dtype": "float32"}, {"name": "block2-02_expand_bn/moving_variance", "shape": [128], "dtype": "float32"}, {"name": "block2-02_project_conv/kernel", "shape": [1, 1, 128, 32], "dtype": "float32"}, {"name": "block2-02_project_bn/gamma", "shape": [32], "dtype": "float32"}, {"name": "block2-02_project_bn/beta", "shape": [32], "dtype": "float32"}, {"name": "block2-02_project_bn/moving_mean", "shape": [32], "dtype": "float32"}, {"name": "block2-02_project_bn/moving_variance", "shape": [32], "dtype": "float32"}, {"name": "block3-01_expand_conv/kernel", "shape": [3, 3, 32, 128], "dtype": "float32"}, {"name": "block3-01_expand_bn/gamma", "shape": [128], "dtype": "float32"}, {"name": "block3-01_expand_bn/beta", "shape": [128], "dtype": "float32"}, {"name": "block3-01_expand_bn/moving_mean", "shape": [128], "dtype": "float32"}, {"name": "block3-01_expand_bn/moving_variance", "shape": [128], "dtype": "float32"}, {"name": "block3-01_project_conv/kernel", "shape": [1, 1, 128, 48], "dtype": "float32"}, {"name": "block3-01_project_bn/gamma", "shape": [48], "dtype": "float32"}, {"name": "block3-01_project_bn/beta", "shape": [48], "dtype": "float32"}, {"name": "block3-01_project_bn/moving_mean", "shape": [48], "dtype": "float32"}, {"name": "block3-01_project_bn/moving_variance", "shape": [48], "dtype": "float32"}, {"name": "block3-02_expand_conv/kernel", "shape": [3, 3, 48, 192], "dtype": "float32"}, {"name": "block3-02_expand_bn/gamma", "shape": [192], "dtype": "float32"}, {"name": "block3-02_expand_bn/beta", "shape": [192], "dtype": "float32"}, {"name": "block3-02_expand_bn/moving_mean", "shape": [192], "dtype": "float32"}, {"name": "block3-02_expand_bn/moving_variance", "shape": [192], "dtype": "float32"}, {"name": "block3-02_project_conv/kernel", "shape": [1, 1, 192, 48], "dtype": "float32"}, {"name": "block3-02_project_bn/gamma", "shape": [48], "dtype": "float32"}, {"name": "block3-02_project_bn/beta", "shape": [48], "dtype": "float32"}, {"name": "block3-02_project_bn/moving_mean", "shape": [48], "dtype": "float32"}, {"name": "block3-02_project_bn/moving_variance", "shape": [48], "dtype": "float32"}, {"name": "block4-01_expand_conv/kernel", "shape": [1, 1, 48, 192], "dtype": "float32"}, {"name": "block4-01_expand_bn/gamma", "shape": [192], "dtype": "float32"}, {"name": "block4-01_expand_bn/beta", "shape": [192], "dtype": "float32"}, {"name": "block4-01_expand_bn/moving_mean", "shape": [192], "dtype": "float32"}, {"name": "block4-01_expand_bn/moving_variance", "shape": [192], "dtype": "float32"}, {"name": "block4-01_dwconv2/depthwise_kernel", "shape": [3, 3, 192, 1], "dtype": "float32"}, {"name": "block4-01_bn/gamma", "shape": [192], "dtype": "float32"}, {"name": "block4-01_bn/beta", "shape": [192], "dtype": "float32"}, {"name": "block4-01_bn/moving_mean", "shape": [192], "dtype": "float32"}, {"name": "block4-01_bn/moving_variance", "shape": [192], "dtype": "float32"}, {"name": "block4-01_se_reduce/kernel", "shape": [1, 1, 192, 12], "dtype": "float32"}, {"name": "block4-01_se_reduce/bias", "shape": [12], "dtype": "float32"}, {"name": "block4-01_se_expand/kernel", "shape": [1, 1, 12, 192], "dtype": "float32"}, {"name": "block4-01_se_expand/bias", "shape": [192], "dtype": "float32"}, {"name": "block4-01_project_conv/kernel", "shape": [1, 1, 192, 96], "dtype": "float32"}, {"name": "block4-01_project_bn/gamma", "shape": [96], "dtype": "float32"}, {"name": "block4-01_project_bn/beta", "shape": [96], "dtype": "float32"}, {"name": "block4-01_project_bn/moving_mean", "shape": [96], "dtype": "float32"}, {"name": "block4-01_project_bn/moving_variance", "shape": [96], "dtype": "float32"}, {"name": "block4-02_expand_conv/kernel", "shape": [1, 1, 96, 384], "dtype": "float32"}, {"name": "block4-02_expand_bn/gamma", "shape": [384], "dtype": "float32"}, {"name": "block4-02_expand_bn/beta", "shape": [384], "dtype": "float32"}, {"name": "block4-02_expand_bn/moving_mean", "shape": [384], "dtype": "float32"}, {"name": "block4-02_expand_bn/moving_variance", "shape": [384], "dtype": "float32"}, {"name": "block4-02_dwconv2/depthwise_kernel", "shape": [3, 3, 384, 1], "dtype": "float32"}, {"name": "block4-02_bn/gamma", "shape": [384], "dtype": "float32"}, {"name": "block4-02_bn/beta", "shape": [384], "dtype": "float32"}, {"name": "block4-02_bn/moving_mean", "shape": [384], "dtype": "float32"}, {"name": "block4-02_bn/moving_variance", "shape": [384], "dtype": "float32"}, {"name": "block4-02_se_reduce/kernel", "shape": [1, 1, 384, 24], "dtype": "float32"}, {"name": "block4-02_se_reduce/bias", "shape": [24], "dtype": "float32"}, {"name": "block4-02_se_expand/kernel", "shape": [1, 1, 24, 384], "dtype": "float32"}, {"name": "block4-02_se_expand/bias", "shape": [384], "dtype": "float32"}, {"name": "block4-02_project_conv/kernel", "shape": [1, 1, 384, 96], "dtype": "float32"}, {"name": "block4-02_project_bn/gamma", "shape": [96], "dtype": "float32"}, {"name": "block4-02_project_bn/beta", "shape": [96], "dtype": "float32"}, {"name": "block4-02_project_bn/moving_mean", "shape": [96], "dtype": "float32"}, {"name": "block4-02_project_bn/moving_variance", "shape": [96], "dtype": "float32"}, {"name": "block4-03_expand_conv/kernel", "shape": [1, 1, 96, 384], "dtype": "float32"}, {"name": "block4-03_expand_bn/gamma", "shape": [384], "dtype": "float32"}, {"name": "block4-03_expand_bn/beta", "shape": [384], "dtype": "float32"}, {"name": "block4-03_expand_bn/moving_mean", "shape": [384], "dtype": "float32"}, {"name": "block4-03_expand_bn/moving_variance", "shape": [384], "dtype": "float32"}, {"name": "block4-03_dwconv2/depthwise_kernel", "shape": [3, 3, 384, 1], "dtype": "float32"}, {"name": "block4-03_bn/gamma", "shape": [384], "dtype": "float32"}, {"name": "block4-03_bn/beta", "shape": [384], "dtype": "float32"}, {"name": "block4-03_bn/moving_mean", "shape": [384], "dtype": "float32"}, {"name": "block4-03_bn/moving_variance", "shape": [384], "dtype": "float32"}, {"name": "block4-03_se_reduce/kernel", "shape": [1, 1, 384, 24], "dtype": "float32"}, {"name": "block4-03_se_reduce/bias", "shape": [24], "dtype": "float32"}, {"name": "block4-03_se_expand/kernel", "shape": [1, 1, 24, 384], "dtype": "float32"}, {"name": "block4-03_se_expand/bias", "shape": [384], "dtype": "float32"}, {"name": "block4-03_project_conv/kernel", "shape": [1, 1, 384, 96], "dtype": "float32"}, {"name": "block4-03_project_bn/gamma", "shape": [96], "dtype": "float32"}, {"name": "block4-03_project_bn/beta", "shape": [96], "dtype": "float32"}, {"name": "block4-03_project_bn/moving_mean", "shape": [96], "dtype": "float32"}, {"name": "block4-03_project_bn/moving_variance", "shape": [96], "dtype": "float32"}, {"name": "block5-01_expand_conv/kernel", "shape": [1, 1, 96, 576], "dtype": "float32"}, {"name": "block5-01_expand_bn/gamma", "shape": [576], "dtype": "float32"}, {"name": "block5-01_expand_bn/beta", "shape": [576], "dtype": "float32"}, {"name": "block5-01_expand_bn/moving_mean", "shape": [576], "dtype": "float32"}, {"name": "block5-01_expand_bn/moving_variance", "shape": [576], "dtype": "float32"}, {"name": "block5-01_dwconv2/depthwise_kernel", "shape": [3, 3, 576, 1], "dtype": "float32"}, {"name": "block5-01_bn/gamma", "shape": [576], "dtype": "float32"}, {"name": "block5-01_bn/beta", "shape": [576], "dtype": "float32"}, {"name": "block5-01_bn/moving_mean", "shape": [576], "dtype": "float32"}, {"name": "block5-01_bn/moving_variance", "shape": [576], "dtype": "float32"}, {"name": "block5-01_se_reduce/kernel", "shape": [1, 1, 576, 24], "dtype": "float32"}, {"name": "block5-01_se_reduce/bias", "shape": [24], "dtype": "float32"}, {"name": "block5-01_se_expand/kernel", "shape": [1, 1, 24, 576], "dtype": "float32"}, {"name": "block5-01_se_expand/bias", "shape": [576], "dtype": "float32"}, {"name": "block5-01_project_conv/kernel", "shape": [1, 1, 576, 112], "dtype": "float32"}, {"name": "block5-01_project_bn/gamma", "shape": [112], "dtype": "float32"}, {"name": "block5-01_project_bn/beta", "shape": [112], "dtype": "float32"}, {"name": "block5-01_project_bn/moving_mean", "shape": [112], "dtype": "float32"}, {"name": "block5-01_project_bn/moving_variance", "shape": [112], "dtype": "float32"}, {"name": "block5-02_expand_conv/kernel", "shape": [1, 1, 112, 672], "dtype": "float32"}, {"name": "block5-02_expand_bn/gamma", "shape": [672], "dtype": "float32"}, {"name": "block5-02_expand_bn/beta", "shape": [672], "dtype": "float32"}, {"name": "block5-02_expand_bn/moving_mean", "shape": [672], "dtype": "float32"}, {"name": "block5-02_expand_bn/moving_variance", "shape": [672], "dtype": "float32"}, {"name": "block5-02_dwconv2/depthwise_kernel", "shape": [3, 3, 672, 1], "dtype": "float32"}, {"name": "block5-02_bn/gamma", "shape": [672], "dtype": "float32"}, {"name": "block5-02_bn/beta", "shape": [672], "dtype": "float32"}, {"name": "block5-02_bn/moving_mean", "shape": [672], "dtype": "float32"}, {"name": "block5-02_bn/moving_variance", "shape": [672], "dtype": "float32"}, {"name": "block5-02_se_reduce/kernel", "shape": [1, 1, 672, 28], "dtype": "float32"}, {"name": "block5-02_se_reduce/bias", "shape": [28], "dtype": "float32"}, {"name": "block5-02_se_expand/kernel", "shape": [1, 1, 28, 672], "dtype": "float32"}, {"name": "block5-02_se_expand/bias", "shape": [672], "dtype": "float32"}, {"name": "block5-02_project_conv/kernel", "shape": [1, 1, 672, 112], "dtype": "float32"}, {"name": "block5-02_project_bn/gamma", "shape": [112], "dtype": "float32"}, {"name": "block5-02_project_bn/beta", "shape": [112], "dtype": "float32"}, {"name": "block5-02_project_bn/moving_mean", "shape": [112], "dtype": "float32"}, {"name": "block5-02_project_bn/moving_variance", "shape": [112], "dtype": "float32"}, {"name": "block5-03_expand_conv/kernel", "shape": [1, 1, 112, 672], "dtype": "float32"}, {"name": "block5-03_expand_bn/gamma", "shape": [672], "dtype": "float32"}, {"name": "block5-03_expand_bn/beta", "shape": [672], "dtype": "float32"}, {"name": "block5-03_expand_bn/moving_mean", "shape": [672], "dtype": "float32"}, {"name": "block5-03_expand_bn/moving_variance", "shape": [672], "dtype": "float32"}, {"name": "block5-03_dwconv2/depthwise_kernel", "shape": [3, 3, 672, 1], "dtype": "float32"}, {"name": "block5-03_bn/gamma", "shape": [672], "dtype": "float32"}, {"name": "block5-03_bn/beta", "shape": [672], "dtype": "float32"}, {"name": "block5-03_bn/moving_mean", "shape": [672], "dtype": "float32"}, {"name": "block5-03_bn/moving_variance", "shape": [672], "dtype": "float32"}, {"name": "block5-03_se_reduce/kernel", "shape": [1, 1, 672, 28], "dtype": "float32"}, {"name": "block5-03_se_reduce/bias", "shape": [28], "dtype": "float32"}, {"name": "block5-03_se_expand/kernel", "shape": [1, 1, 28, 672], "dtype": "float32"}, {"name": "block5-03_se_expand/bias", "shape": [672], "dtype": "float32"}, {"name": "block5-03_project_conv/kernel", "shape": [1, 1, 672, 112], "dtype": "float32"}, {"name": "block5-03_project_bn/gamma", "shape": [112], "dtype": "float32"}, {"name": "block5-03_project_bn/beta", "shape": [112], "dtype": "float32"}, {"name": "block5-03_project_bn/moving_mean", "shape": [112], "dtype": "float32"}, {"name": "block5-03_project_bn/moving_variance", "shape": [112], "dtype": "float32"}, {"name": "block5-04_expand_conv/kernel", "shape": [1, 1, 112, 672], "dtype": "float32"}, {"name": "block5-04_expand_bn/gamma", "shape": [672], "dtype": "float32"}, {"name": "block5-04_expand_bn/beta", "shape": [672], "dtype": "float32"}, {"name": "block5-04_expand_bn/moving_mean", "shape": [672], "dtype": "float32"}, {"name": "block5-04_expand_bn/moving_variance", "shape": [672], "dtype": "float32"}, {"name": "block5-04_dwconv2/depthwise_kernel", "shape": [3, 3, 672, 1], "dtype": "float32"}, {"name": "block5-04_bn/gamma", "shape": [672], "dtype": "float32"}, {"name": "block5-04_bn/beta", "shape": [672], "dtype": "float32"}, {"name": "block5-04_bn/moving_mean", "shape": [672], "dtype": "float32"}, {"name": "block5-04_bn/moving_variance", "shape": [672], "dtype": "float32"}, {"name": "block5-04_se_reduce/kernel", "shape": [1, 1, 672, 28], "dtype": "float32"}, {"name": "block5-04_se_reduce/bias", "shape": [28], "dtype": "float32"}, {"name": "block5-04_se_expand/kernel", "shape": [1, 1, 28, 672], "dtype": "float32"}, {"name": "block5-04_se_expand/bias", "shape": [672], "dtype": "float32"}, {"name": "block5-04_project_conv/kernel", "shape": [1, 1, 672, 112], "dtype": "float32"}, {"name": "block5-04_project_bn/gamma", "shape": [112], "dtype": "float32"}, {"name": "block5-04_project_bn/beta", "shape": [112], "dtype": "float32"}, {"name": "block5-04_project_bn/moving_mean", "shape": [112], "dtype": "float32"}, {"name": "block5-04_project_bn/moving_variance", "shape": [112], "dtype": "float32"}, {"name": "block5-05_expand_conv/kernel", "shape": [1, 1, 112, 672], "dtype": "float32"}, {"name": "block5-05_expand_bn/gamma", "shape": [672], "dtype": "float32"}, {"name": "block5-05_expand_bn/beta", "shape": [672], "dtype": "float32"}, {"name": "block5-05_expand_bn/moving_mean", "shape": [672], "dtype": "float32"}, {"name": "block5-05_expand_bn/moving_variance", "shape": [672], "dtype": "float32"}, {"name": "block5-05_dwconv2/depthwise_kernel", "shape": [3, 3, 672, 1], "dtype": "float32"}, {"name": "block5-05_bn/gamma", "shape": [672], "dtype": "float32"}, {"name": "block5-05_bn/beta", "shape": [672], "dtype": "float32"}, {"name": "block5-05_bn/moving_mean", "shape": [672], "dtype": "float32"}, {"name": "block5-05_bn/moving_variance", "shape": [672], "dtype": "float32"}, {"name": "block5-05_se_reduce/kernel", "shape": [1, 1, 672, 28], "dtype": "float32"}, {"name": "block5-05_se_reduce/bias", "shape": [28], "dtype": "float32"}, {"name": "block5-05_se_expand/kernel", "shape": [1, 1, 28, 672], "dtype": "float32"}, {"name": "block5-05_se_expand/bias", "shape": [672], "dtype": "float32"}, {"name": "block5-05_project_conv/kernel", "shape": [1, 1, 672, 112], "dtype": "float32"}, {"name": "block5-05_project_bn/gamma", "shape": [112], "dtype": "float32"}, {"name": "block5-05_project_bn/beta", "shape": [112], "dtype": "float32"}, {"name": "block5-05_project_bn/moving_mean", "shape": [112], "dtype": "float32"}, {"name": "block5-05_project_bn/moving_variance", "shape": [112], "dtype": "float32"}, {"name": "block6-01_expand_conv/kernel", "shape": [1, 1, 112, 672], "dtype": "float32"}, {"name": "block6-01_expand_bn/gamma", "shape": [672], "dtype": "float32"}, {"name": "block6-01_expand_bn/beta", "shape": [672], "dtype": "float32"}, {"name": "block6-01_expand_bn/moving_mean", "shape": [672], "dtype": "float32"}, {"name": "block6-01_expand_bn/moving_variance", "shape": [672], "dtype": "float32"}, {"name": "block6-01_dwconv2/depthwise_kernel", "shape": [3, 3, 672, 1], "dtype": "float32"}, {"name": "block6-01_bn/gamma", "shape": [672], "dtype": "float32"}, {"name": "block6-01_bn/beta", "shape": [672], "dtype": "float32"}, {"name": "block6-01_bn/moving_mean", "shape": [672], "dtype": "float32"}, {"name": "block6-01_bn/moving_variance", "shape": [672], "dtype": "float32"}, {"name": "block6-01_se_reduce/kernel", "shape": [1, 1, 672, 28], "dtype": "float32"}, {"name": "block6-01_se_reduce/bias", "shape": [28], "dtype": "float32"}, {"name": "block6-01_se_expand/kernel", "shape": [1, 1, 28, 672], "dtype": "float32"}, {"name": "block6-01_se_expand/bias", "shape": [672], "dtype": "float32"}, {"name": "block6-01_project_conv/kernel", "shape": [1, 1, 672, 192], "dtype": "float32"}, {"name": "block6-01_project_bn/gamma", "shape": [192], "dtype": "float32"}, {"name": "block6-01_project_bn/beta", "shape": [192], "dtype": "float32"}, {"name": "block6-01_project_bn/moving_mean", "shape": [192], "dtype": "float32"}, {"name": "block6-01_project_bn/moving_variance", "shape": [192], "dtype": "float32"}, {"name": "block6-02_expand_conv/kernel", "shape": [1, 1, 192, 1152], "dtype": "float32"}, {"name": "block6-02_expand_bn/gamma", "shape": [1152], "dtype": "float32"}, {"name": "block6-02_expand_bn/beta", "shape": [1152], "dtype": "float32"}, {"name": "block6-02_expand_bn/moving_mean", "shape": [1152], "dtype": "float32"}, {"name": "block6-02_expand_bn/moving_variance", "shape": [1152], "dtype": "float32"}, {"name": "block6-02_dwconv2/depthwise_kernel", "shape": [3, 3, 1152, 1], "dtype": "float32"}, {"name": "block6-02_bn/gamma", "shape": [1152], "dtype": "float32"}, {"name": "block6-02_bn/beta", "shape": [1152], "dtype": "float32"}, {"name": "block6-02_bn/moving_mean", "shape": [1152], "dtype": "float32"}, {"name": "block6-02_bn/moving_variance", "shape": [1152], "dtype": "float32"}, {"name": "block6-02_se_reduce/kernel", "shape": [1, 1, 1152, 48], "dtype": "float32"}, {"name": "block6-02_se_reduce/bias", "shape": [48], "dtype": "float32"}, {"name": "block6-02_se_expand/kernel", "shape": [1, 1, 48, 1152], "dtype": "float32"}, {"name": "block6-02_se_expand/bias", "shape": [1152], "dtype": "float32"}, {"name": "block6-02_project_conv/kernel", "shape": [1, 1, 1152, 192], "dtype": "float32"}, {"name": "block6-02_project_bn/gamma", "shape": [192], "dtype": "float32"}, {"name": "block6-02_project_bn/beta", "shape": [192], "dtype": "float32"}, {"name": "block6-02_project_bn/moving_mean", "shape": [192], "dtype": "float32"}, {"name": "block6-02_project_bn/moving_variance", "shape": [192], "dtype": "float32"}, {"name": "block6-03_expand_conv/kernel", "shape": [1, 1, 192, 1152], "dtype": "float32"}, {"name": "block6-03_expand_bn/gamma", "shape": [1152], "dtype": "float32"}, {"name": "block6-03_expand_bn/beta", "shape": [1152], "dtype": "float32"}, {"name": "block6-03_expand_bn/moving_mean", "shape": [1152], "dtype": "float32"}, {"name": "block6-03_expand_bn/moving_variance", "shape": [1152], "dtype": "float32"}, {"name": "block6-03_dwconv2/depthwise_kernel", "shape": [3, 3, 1152, 1], "dtype": "float32"}, {"name": "block6-03_bn/gamma", "shape": [1152], "dtype": "float32"}, {"name": "block6-03_bn/beta", "shape": [1152], "dtype": "float32"}, {"name": "block6-03_bn/moving_mean", "shape": [1152], "dtype": "float32"}, {"name": "block6-03_bn/moving_variance", "shape": [1152], "dtype": "float32"}, {"name": "block6-03_se_reduce/kernel", "shape": [1, 1, 1152, 48], "dtype": "float32"}, {"name": "block6-03_se_reduce/bias", "shape": [48], "dtype": "float32"}, {"name": "block6-03_se_expand/kernel", "shape": [1, 1, 48, 1152], "dtype": "float32"}, {"name": "block6-03_se_expand/bias", "shape": [1152], "dtype": "float32"}, {"name": "block6-03_project_conv/kernel", "shape": [1, 1, 1152, 192], "dtype": "float32"}, {"name": "block6-03_project_bn/gamma", "shape": [192], "dtype": "float32"}, {"name": "block6-03_project_bn/beta", "shape": [192], "dtype": "float32"}, {"name": "block6-03_project_bn/moving_mean", "shape": [192], "dtype": "float32"}, {"name": "block6-03_project_bn/moving_variance", "shape": [192], "dtype": "float32"}, {"name": "block6-04_expand_conv/kernel", "shape": [1, 1, 192, 1152], "dtype": "float32"}, {"name": "block6-04_expand_bn/gamma", "shape": [1152], "dtype": "float32"}, {"name": "block6-04_expand_bn/beta", "shape": [1152], "dtype": "float32"}, {"name": "block6-04_expand_bn/moving_mean", "shape": [1152], "dtype": "float32"}, {"name": "block6-04_expand_bn/moving_variance", "shape": [1152], "dtype": "float32"}, {"name": "block6-04_dwconv2/depthwise_kernel", "shape": [3, 3, 1152, 1], "dtype": "float32"}, {"name": "block6-04_bn/gamma", "shape": [1152], "dtype": "float32"}, {"name": "block6-04_bn/beta", "shape": [1152], "dtype": "float32"}, {"name": "block6-04_bn/moving_mean", "shape": [1152], "dtype": "float32"}, {"name": "block6-04_bn/moving_variance", "shape": [1152], "dtype": "float32"}, {"name": "block6-04_se_reduce/kernel", "shape": [1, 1, 1152, 48], "dtype": "float32"}, {"name": "block6-04_se_reduce/bias", "shape": [48], "dtype": "float32"}, {"name": "block6-04_se_expand/kernel", "shape": [1, 1, 48, 1152], "dtype": "float32"}, {"name": "block6-04_se_expand/bias", "shape": [1152], "dtype": "float32"}, {"name": "block6-04_project_conv/kernel", "shape": [1, 1, 1152, 192], "dtype": "float32"}, {"name": "block6-04_project_bn/gamma", "shape": [192], "dtype": "float32"}, {"name": "block6-04_project_bn/beta", "shape": [192], "dtype": "float32"}, {"name": "block6-04_project_bn/moving_mean", "shape": [192], "dtype": "float32"}, {"name": "block6-04_project_bn/moving_variance", "shape": [192], "dtype": "float32"}, {"name": "block6-05_expand_conv/kernel", "shape": [1, 1, 192, 1152], "dtype": "float32"}, {"name": "block6-05_expand_bn/gamma", "shape": [1152], "dtype": "float32"}, {"name": "block6-05_expand_bn/beta", "shape": [1152], "dtype": "float32"}, {"name": "block6-05_expand_bn/moving_mean", "shape": [1152], "dtype": "float32"}, {"name": "block6-05_expand_bn/moving_variance", "shape": [1152], "dtype": "float32"}, {"name": "block6-05_dwconv2/depthwise_kernel", "shape": [3, 3, 1152, 1], "dtype": "float32"}, {"name": "block6-05_bn/gamma", "shape": [1152], "dtype": "float32"}, {"name": "block6-05_bn/beta", "shape": [1152], "dtype": "float32"}, {"name": "block6-05_bn/moving_mean", "shape": [1152], "dtype": "float32"}, {"name": "block6-05_bn/moving_variance", "shape": [1152], "dtype": "float32"}, {"name": "block6-05_se_reduce/kernel", "shape": [1, 1, 1152, 48], "dtype": "float32"}, {"name": "block6-05_se_reduce/bias", "shape": [48], "dtype": "float32"}, {"name": "block6-05_se_expand/kernel", "shape": [1, 1, 48, 1152], "dtype": "float32"}, {"name": "block6-05_se_expand/bias", "shape": [1152], "dtype": "float32"}, {"name": "block6-05_project_conv/kernel", "shape": [1, 1, 1152, 192], "dtype": "float32"}, {"name": "block6-05_project_bn/gamma", "shape": [192], "dtype": "float32"}, {"name": "block6-05_project_bn/beta", "shape": [192], "dtype": "float32"}, {"name": "block6-05_project_bn/moving_mean", "shape": [192], "dtype": "float32"}, {"name": "block6-05_project_bn/moving_variance", "shape": [192], "dtype": "float32"}, {"name": "block6-06_expand_conv/kernel", "shape": [1, 1, 192, 1152], "dtype": "float32"}, {"name": "block6-06_expand_bn/gamma", "shape": [1152], "dtype": "float32"}, {"name": "block6-06_expand_bn/beta", "shape": [1152], "dtype": "float32"}, {"name": "block6-06_expand_bn/moving_mean", "shape": [1152], "dtype": "float32"}, {"name": "block6-06_expand_bn/moving_variance", "shape": [1152], "dtype": "float32"}, {"name": "block6-06_dwconv2/depthwise_kernel", "shape": [3, 3, 1152, 1], "dtype": "float32"}, {"name": "block6-06_bn/gamma", "shape": [1152], "dtype": "float32"}, {"name": "block6-06_bn/beta", "shape": [1152], "dtype": "float32"}, {"name": "block6-06_bn/moving_mean", "shape": [1152], "dtype": "float32"}, {"name": "block6-06_bn/moving_variance", "shape": [1152], "dtype": "float32"}, {"name": "block6-06_se_reduce/kernel", "shape": [1, 1, 1152, 48], "dtype": "float32"}, {"name": "block6-06_se_reduce/bias", "shape": [48], "dtype": "float32"}, {"name": "block6-06_se_expand/kernel", "shape": [1, 1, 48, 1152], "dtype": "float32"}, {"name": "block6-06_se_expand/bias", "shape": [1152], "dtype": "float32"}, {"name": "block6-06_project_conv/kernel", "shape": [1, 1, 1152, 192], "dtype": "float32"}, {"name": "block6-06_project_bn/gamma", "shape": [192], "dtype": "float32"}, {"name": "block6-06_project_bn/beta", "shape": [192], "dtype": "float32"}, {"name": "block6-06_project_bn/moving_mean", "shape": [192], "dtype": "float32"}, {"name": "block6-06_project_bn/moving_variance", "shape": [192], "dtype": "float32"}, {"name": "block6-07_expand_conv/kernel", "shape": [1, 1, 192, 1152], "dtype": "float32"}, {"name": "block6-07_expand_bn/gamma", "shape": [1152], "dtype": "float32"}, {"name": "block6-07_expand_bn/beta", "shape": [1152], "dtype": "float32"}, {"name": "block6-07_expand_bn/moving_mean", "shape": [1152], "dtype": "float32"}, {"name": "block6-07_expand_bn/moving_variance", "shape": [1152], "dtype": "float32"}, {"name": "block6-07_dwconv2/depthwise_kernel", "shape": [3, 3, 1152, 1], "dtype": "float32"}, {"name": "block6-07_bn/gamma", "shape": [1152], "dtype": "float32"}, {"name": "block6-07_bn/beta", "shape": [1152], "dtype": "float32"}, {"name": "block6-07_bn/moving_mean", "shape": [1152], "dtype": "float32"}, {"name": "block6-07_bn/moving_variance", "shape": [1152], "dtype": "float32"}, {"name": "block6-07_se_reduce/kernel", "shape": [1, 1, 1152, 48], "dtype": "float32"}, {"name": "block6-07_se_reduce/bias", "shape": [48], "dtype": "float32"}, {"name": "block6-07_se_expand/kernel", "shape": [1, 1, 48, 1152], "dtype": "float32"}, {"name": "block6-07_se_expand/bias", "shape": [1152], "dtype": "float32"}, {"name": "block6-07_project_conv/kernel", "shape": [1, 1, 1152, 192], "dtype": "float32"}, {"name": "block6-07_project_bn/gamma", "shape": [192], "dtype": "float32"}, {"name": "block6-07_project_bn/beta", "shape": [192], "dtype": "float32"}, {"name": "block6-07_project_bn/moving_mean", "shape": [192], "dtype": "float32"}, {"name": "block6-07_project_bn/moving_variance", "shape": [192], "dtype": "float32"}, {"name": "block6-08_expand_conv/kernel", "shape": [1, 1, 192, 1152], "dtype": "float32"}, {"name": "block6-08_expand_bn/gamma", "shape": [1152], "dtype": "float32"}, {"name": "block6-08_expand_bn/beta", "shape": [1152], "dtype": "float32"}, {"name": "block6-08_expand_bn/moving_mean", "shape": [1152], "dtype": "float32"}, {"name": "block6-08_expand_bn/moving_variance", "shape": [1152], "dtype": "float32"}, {"name": "block6-08_dwconv2/depthwise_kernel", "shape": [3, 3, 1152, 1], "dtype": "float32"}, {"name": "block6-08_bn/gamma", "shape": [1152], "dtype": "float32"}, {"name": "block6-08_bn/beta", "shape": [1152], "dtype": "float32"}, {"name": "block6-08_bn/moving_mean", "shape": [1152], "dtype": "float32"}, {"name": "block6-08_bn/moving_variance", "shape": [1152], "dtype": "float32"}, {"name": "block6-08_se_reduce/kernel", "shape": [1, 1, 1152, 48], "dtype": "float32"}, {"name": "block6-08_se_reduce/bias", "shape": [48], "dtype": "float32"}, {"name": "block6-08_se_expand/kernel", "shape": [1, 1, 48, 1152], "dtype": "float32"}, {"name": "block6-08_se_expand/bias", "shape": [1152], "dtype": "float32"}, {"name": "block6-08_project_conv/kernel", "shape": [1, 1, 1152, 192], "dtype": "float32"}, {"name": "block6-08_project_bn/gamma", "shape": [192], "dtype": "float32"}, {"name": "block6-08_project_bn/beta", "shape": [192], "dtype": "float32"}, {"name": "block6-08_project_bn/moving_mean", "shape": [192], "dtype": "float32"}, {"name": "block6-08_project_bn/moving_variance", "shape": [192], "dtype": "float32"}, {"name": "top_conv/kernel", "shape": [1, 1, 192, 1280], "dtype": "float32"}, {"name": "top_bn/gamma", "shape": [1280], "dtype": "float32"}, {"name": "top_bn/beta", "shape": [1280], "dtype": "float32"}, {"name": "top_bn/moving_mean", "shape": [1280], "dtype": "float32"}, {"name": "top_bn/moving_variance", "shape": [1280], "dtype": "float32"}]}]}